unsup_prototype_nongroup_to_group_clean/results_group/seed0_protos4_2021-02-11_00-15-49/states/00000.pth (torch, 557111 bytes, 52 tensors)

weights_prototypes f4 [2, 40]
000000 00 00 80 3f 00 00 80 3f 00 00 80 3f 00 00 80 3f
       1.0 1.0 1.0 1.0
000010 00 00 80 3f 00 00 80 3f 00 00 80 3f 00 00 80 3f
       1.0 1.0 1.0 1.0
000020 00 00 80 3f 00 00 80 3f 00 00 80 3f 00 00 80 3f
       1.0 1.0 1.0 1.0
000030 00 00 80 3f 00 00 80 3f 00 00 80 3f 00 00 80 3f
       1.0 1.0 1.0 1.0
000040 00 00 80 3f 00 00 80 3f 00 00 80 3f 00 00 80 3f
       1.0 1.0 1.0 1.0
000050 00 00 80 3f 00 00 80 3f 00 00 80 3f 00 00 80 3f
       1.0 1.0 1.0 1.0
000060 00 00 80 3f 00 00 80 3f 00 00 80 3f 00 00 80 3f
       1.0 1.0 1.0 1.0
000070 00 00 80 3f 00 00 80 3f 00 00 80 3f 00 00 80 3f
       1.0 1.0 1.0 1.0
000080 00 00 80 3f 00 00 80 3f 00 00 80 3f 00 00 80 3f
       1.0 1.0 1.0 1.0
000090 00 00 80 3f 00 00 80 3f 00 00 80 3f 00 00 80 3f
       1.0 1.0 1.0 1.0
0000a0 00 00 80 3f 00 00 80 3f 00 00 80 3f 00 00 80 3f
       1.0 1.0 1.0 1.0
0000b0 00 00 80 3f 00 00 80 3f 00 00 80 3f 00 00 80 3f
       1.0 1.0 1.0 1.0
0000c0 00 00 80 3f 00 00 80 3f 00 00 80 3f 00 00 80 3f
       1.0 1.0 1.0 1.0
0000d0 00 00 80 3f 00 00 80 3f 00 00 80 3f 00 00 80 3f
       1.0 1.0 1.0 1.0
0000e0 00 00 80 3f 00 00 80 3f 00 00 80 3f 00 00 80 3f
       1.0 1.0 1.0 1.0
0000f0 00 00 80 3f 00 00 80 3f 00 00 80 3f 00 00 80 3f
       1.0 1.0 1.0 1.0
000100 00 00 80 3f 00 00 80 3f 00 00 80 3f 00 00 80 3f
       1.0 1.0 1.0 1.0
000110 00 00 80 3f 00 00 80 3f 00 00 80 3f 00 00 80 3f
       1.0 1.0 1.0 1.0
000120 00 00 80 3f 00 00 80 3f 00 00 80 3f 00 00 80 3f
       1.0 1.0 1.0 1.0
000130 00 00 80 3f 00 00 80 3f 00 00 80 3f 00 00 80 3f
       1.0 1.0 1.0 1.0

enc.model.0.conv.weight f4 [32, 3, 3, 3]
000000 44 96 d2 b9 08 46 d5 3d ee 4e 21 be d6 a2 12 be
       -0.00040166278 0.10413748 -0.15752766 -0.1431993
000010 54 f3 99 bd ef 86 4e 3d e1 d3 d2 bb 90 e3 19 3e
       -0.07517114 0.05042165 -0.0064339493 0.15028214
000020 47 b8 97 bc 12 2b 75 3d 4e d8 41 bd 13 b0 d7 bc
       -0.018520487 0.05985553 -0.047325425 -0.026329076
000030 df ba 32 be 0c 81 ef bd 8a 55 86 bd 99 a4 9d 3c
       -0.17454098 -0.116945356 -0.06559284 0.019243525
000040 60 d6 b5 3d dd 8b 02 3e d2 4a f1 bd c3 d6 96 bd
       0.088787794 0.12748666 -0.11781849 -0.07365181
000050 4d d1 a6 3d 80 2d 31 3e 0c ca ea bc b7 09 1f 3e
       0.0814539 0.17302513 -0.028660797 0.1553105
000060 1b 82 ba bc f1 02 d0 3c ff f7 3a 3e b6 70 34 be
       -0.022767117 0.025392028 0.18258666 -0.17621121
000070 3b fe e0 bd 35 54 4a bd 6d 5d 09 be e3 59 f2 3d
       -0.109859906 -0.049396712 -0.13414545 0.11833551
000080 2b 80 f1 bd 56 c7 31 be 11 4e 59 be 35 51 5c be
       -0.11792024 -0.17361197 -0.21221186 -0.21515353
000090 23 59 98 bd 10 a9 4e 3e 68 7f fc 3d 36 0f 08 3e
       -0.074388765 0.2018168 0.12328988 0.13287053
0000a0 98 2c 47 3d 7f 4b 7e bd 07 56 94 3d 36 ac 0f be
       0.048626512 -0.062083717 0.07242971 -0.14030537
0000b0 a2 ac ce bd 80 ea a0 bd c8 af 12 3e e0 d5 08 3e
       -0.10091521 -0.07857227 0.14324868 0.13362837
0000c0 2d 29 7b bd 0f c4 87 3c 6b f4 13 3e 92 2a 5c 3e
       -0.061318565 0.01657298 0.14448707 0.21500614
0000d0 7e f8 cb 3d 57 bb 44 3d 6a e7 0f 3e b0 9e d3 bd
       0.099595055 0.048030224 0.14053121 -0.103330016
0000e0 6c 1d 41 3d 2a b6 0d be 53 89 fd bd 38 c0 ba bd
       0.0471472 -0.13839021 -0.12379708 -0.09118694
0000f0 2b 6f c4 3d d2 e6 ab 3d 1f eb d3 bd 60 ca 90 3d
       0.09591516 0.08393635 -0.1034758 0.0706985
000100 55 29 f5 3d 97 1e 10 bc f4 8e ab 3c 19 bb 75 3d
       0.11970774 -0.008796356 0.020942189 0.059992883
000110 45 bf 0b 3e 25 e1 4c 3e d4 17 08 be 42 f7 5c bd
       0.13647182 0.20007761 -0.1329034 -0.05394674
000120 4a 11 c7 3d 9e 9c 36 3e 8c 9d 3b 3e 55 3e 42 3e
       0.097200945 0.17833182 0.18321818 0.1896909
000130 0b 6e 5e 3d e7 16 1b be d1 87 0b 3d a2 77 d4 bd
       0.054304164 -0.15145455 0.03406507 -0.10374381
000140 3a ab 2d be 77 35 5c 3e 71 2e 46 3e 0b b2 53 be
       -0.16959849 0.2150477 0.19353653 -0.20673387
000150 c2 59 08 3c d3 9a 87 bd 2d f6 6d bd 31 47 e7 bd
       0.008322181 -0.06621327 -0.0580961 -0.112928756
000160 24 d1 3f 3d 36 af 18 be a3 a2 4a 3d 28 6f 95 3d
       0.04683031 -0.14910588 0.04947151 0.07296592
000170 48 f5 1a 3e c2 3a b0 3d e8 63 35 be fb 12 da bd
       0.1513263 0.08604957 -0.17713892 -0.106481515
000180 60 e7 df 3d 63 cd 63 3d 0a 12 04 be fd d2 ad 3b
       0.10932803 0.055615794 -0.12897506 0.005304693
000190 4e b6 99 3e 8b 59 eb 3d c7 e1 cf bd 43 71 5e bd
       0.300219 0.11491688 -0.101504855 -0.054307234
0001a0 c0 4d 3b be d0 01 c5 bb 2b 7e fa bd 1e c6 24 be
       -0.18291378 -0.006012179 -0.12231096 -0.160912
0001b0 9f 92 1b 3c f1 b2 3f 3d b7 07 68 bd 82 3e 09 3e
       0.009495406 0.04680151 -0.056647982 0.13402751
0001c0 43 f5 c9 bd 70 6a 48 3e c2 b3 20 3e 6d 35 0e be
       -0.09861233 0.19571853 0.15693572 -0.13887568
0001d0 a5 0c b6 bc 3d f2 41 3c 8f 5d 0a 3d ee 07 3f 3d
       -0.022222826 0.011837539 0.03378063 0.04663842
0001e0 62 f2 9d 3d 2b 8f 7d 3c fc bb be bd c2 57 bf 3d
       0.077122465 0.015476028 -0.09313199 0.0934291
0001f0 ea 4e 3a be d5 ea f0 bd 93 ec a3 bd 3e 3e c8 bd
       -0.18194166 -0.11763541 -0.08004107 -0.09777497
000200 b5 e2 f3 ba c7 5b 45 be 18 04 61 bc ea bd c6 3d
       -0.0018606993 -0.19273292 -0.013733886 0.09704192
000210 a4 41 26 be 5b b3 a5 bc da 71 27 3e f3 8d ec bb
       -0.16235977 -0.020227125 0.16352025 -0.00721907
000220 0f 1c 89 3c b8 ce b2 3b 7c ff 68 3d ce d9 0c 3e
       0.016737012 0.0054567717 0.056884274 0.13754961
000230 e9 11 4b 3e 84 5e 07 3e 36 33 43 3e df e0 e0 b9
       0.19831051 0.13219649 0.19062504 -0.0004289215
000240 79 fa 40 be c9 64 dd bd 32 fd e1 3d 81 e6 b2 bc
       -0.18845548 -0.10810239 0.11034621 -0.021838428
000250 be 55 e7 bd d3 01 25 be 6a df 3a be 95 88 23 be
       -0.11295651 -0.16113977 -0.18249288 -0.1597007
000260 3d 89 2d bd 67 63 dc 3d 91 6d e7 3d 37 e4 4a be
       -0.04236721 0.10761147 0.11300195 -0.1981362
000270 9d ae d0 3d 67 60 23 be 0c 73 81 bd b7 1b 94 bd
       0.10189555 -0.15954743 -0.063207716 -0.07231849
000280 1d d8 df bc 79 fe 1f bd 1c b9 36 be c2 a4 3d be
       -0.02732473 -0.039061043 -0.17844051 -0.18519881
000290 19 ef 19 bd 84 8d 2d bc e4 93 db bd dd 66 80 3d
       -0.037581537 -0.010592822 -0.10721567 0.062696196
0002a0 d1 26 36 be 81 34 01 bd 66 cb 2a 3e dc cf 6b bd
       -0.17788245 -0.031544212 0.16679153 -0.057571277
0002b0 bd 96 46 3e 03 e7 b4 3d 84 dd 1c be 3b 48 10 3e
       0.1939344 0.088331245 -0.15318877 0.14090054
0002c0 10 47 70 bb 75 47 8c bd 64 d6 2d 3e e0 c8 10 be
       -0.003666345 -0.06849567 0.16976315 -0.14139128
0002d0 10 75 9a 3c 9b a0 42 bd 65 2a 0a 3e 10 f3 51 3d
       0.018854648 -0.047516447 0.13492735 0.051257193
0002e0 0b ce b1 3d 88 4d 8d 3d 70 e5 2b bd ba 11 1d bd
       0.08681878 0.068995535 -0.041966856 -0.038346983
0002f0 7a c4 1e be b2 79 d9 3d 39 7f 26 3e 99 89 0b 3e
       -0.15504637 0.10618915 0.16259469 0.13626708
000300 82 56 1b be d3 1f ad 3b 5f 7c 07 be 9f 88 ec bd
       -0.15169719 0.0052833348 -0.13231038 -0.11549496
000310 f1 fc fb bd a0 59 78 3d 40 05 e3 bd b5 6d 82 bc
       -0.12304104 0.060632348 -0.11084986 -0.015921453
000320 22 e9 d8 3b 24 cc 08 3e ce 2b 1a be ac 8a 07 be
       0.0066195885 0.13359123 -0.15055773 -0.13236493
000330 15 ed cf bd 6e a6 13 3e 8f 50 94 bd c8 86 2f 3e
       -0.10152642 0.14418957 -0.07241928 0.17141259
000340 c9 07 6d 3d 1a ef a6 3c fa 6b 4f bb 79 61 89 bd
       0.057868753 0.020377684 -0.0031650052 -0.067080446
000350 47 2a cf 3c b8 31 f4 bc ea 7a 57 3c b5 91 3c bb
       0.025288714 -0.029808864 0.013151864 -0.0028773372
000360 fa eb e9 bd cd 2d 8b bd a3 6f 48 3e d8 c7 32 be
       -0.11421962 -0.06795845 0.19573836 -0.17459047
000370 08 0c 14 bd 70 fe 64 3e 11 05 3a 3d ff d3 8e bc
       -0.036144286 0.22362685 0.045414988 -0.017435072
000380 02 ef 39 be 29 51 b8 3d 14 d6 11 be a0 fd 9e bd
       -0.1815758 0.08999855 -0.1424182 -0.07763219
000390 38 a1 4b bd 9e 61 46 bc c1 94 15 bc 78 04 2f 3e
       -0.049714297 -0.012108235 -0.009129704 0.17091548
0003a0 e9 83 0c 3d b1 97 3a 3e 03 20 21 3e 1d 65 ad bd
       0.034305487 0.18221928 0.15734868 -0.084665515
0003b0 d3 ca 14 3e 31 08 1c be ca dd ce bd 4d 95 db 3d
       0.14530496 -0.152375 -0.10100897 0.10721836
0003c0 06 ba e2 3c 5d ea de 3d c6 07 af bd 77 60 d1 bc
       0.027676594 0.10884545 -0.085464045 -0.025558693
0003d0 4c 9e 9e 3d 0c 05 5a be 43 dc c7 3d ec 07 4b be
       0.077450365 -0.21290988 0.097588085 -0.1982724
0003e0 1c d0 bb bc 5c 5a 90 bd ba 4c 0b be 3b b1 7e bc
       -0.022926383 -0.07048485 -0.13603488 -0.015545185
0003f0 cc cd 36 3e 75 60 1d bd 44 9e c0 bd bb dd 47 bd
       0.17851943 -0.038422067 -0.09405187 -0.048795443

enc.model.0.conv.bias f4 [32]
000000 33 60 46 3e 17 3d 46 bd 42 98 fb 3a c0 99 9f bd
       0.19372635 -0.048398104 0.0019195157 -0.07792997
000010 11 3d f6 ba ca 10 5c 3d 13 85 27 3d 6d d8 14 bd
       -0.001878651 0.05372695 0.040898394 -0.036339212
000020 fe 78 42 be de 0f cc 3c ee f8 93 3b f9 56 36 3d
       -0.18991467 0.02490991 0.0045157587 0.044516537
000030 78 f6 1c 3e e2 ea 36 3e f7 5a e9 bd d8 44 04 bc
       0.15328395 0.17863038 -0.11394303 -0.008073054
000040 86 a5 c3 bd b0 a0 35 be 50 96 18 be d3 3b 39 3e
       -0.095530555 -0.17737079 -0.1490109 0.18089227
000050 c8 73 02 3e be 23 d8 3d 82 bb e6 3d 73 0b 24 be
       0.1273948 0.10553692 0.11266233 -0.16019993
000060 ff 37 c4 3c c2 98 33 3e da 06 b5 bd f1 83 2f 3e
       0.023952482 0.17538741 -0.088391975 0.17140175
000070 31 64 2b 3d a2 47 17 3e 49 8c bf bd 67 06 bc 3d
       0.041843597 0.1477342 -0.09352929 0.09180909

enc.model.1.conv.weight f4 [32, 32, 3, 3]
000000 3f f6 55 bd 20 34 75 bb de 02 a1 3c b6 c3 90 3c
       -0.05223679 -0.0037415102 0.019654687 0.017671447
000010 a5 f8 49 3d 59 2c 6d 3d 01 94 5b 3d ef 0b 22 3d
       0.04930939 0.05790362 0.053607944 0.039562162
000020 c1 b0 29 3d d8 23 f9 bb 55 4e 3b bd b8 32 b3 bc
       0.04142833 -0.00760315 -0.045729 -0.02187477
000030 c0 c4 d8 bb 5e 6d 02 bd 62 c0 f6 3c 7e 72 a9 3c
       -0.0066152513 -0.031842582 0.030121032 0.020684477
000040 6c c6 1b 3c 24 36 69 3c c1 05 54 3d 36 d2 af 3c
       0.009507757 0.0142341 0.0517633 0.021462541
000050 46 a8 53 bd ac 32 2f bd 06 c2 d4 3c a4 91 03 3c
       -0.05167415 -0.042772934 0.025971424 0.008030329
000060 ea 6a eb 3c d7 0c 71 bd 30 be 5e bd ff 01 14 3d
       0.028737504 -0.058850136 -0.054380596 0.036134716
000070 63 62 1a 3d 39 5c 5a bd 96 3b b7 3c c0 76 3c bd
       0.037691485 -0.053310607 0.02236728 -0.046011686
000080 7b c8 36 3d ee 78 97 3c 19 a7 6e 3d 68 fa 6d bd
       0.044624787 0.018490281 0.058264825 -0.058100134
000090 c5 59 68 bd f3 2e 23 3d c1 48 56 3d 3b e0 13 3d
       -0.056726236 0.039839696 0.052315477 0.036102515
0000a0 77 76 20 3d 34 4a 4b bd f3 b2 2e 3d e6 e0 63 bd
       0.039175477 -0.049631312 0.042651128 -0.0556344
0000b0 1c ae 57 3c 3f 19 1e bd c6 bb bf bc dc f2 2a 3c
       0.0131640695 -0.038598295 -0.023404967 0.010433879
0000c0 90 cb bd bc 10 c1 18 bc 1c c4 64 bd 30 92 63 bd
       -0.023168355 -0.009323373 -0.055851087 -0.055559337
0000d0 ba fc ba 3c 00 53 cc bc 23 d7 12 bd d8 78 be bc
       0.022825588 -0.024941921 -0.0358497 -0.023250982
0000e0 df 53 45 bd 4a f1 40 bd 31 6c 10 3d 76 56 f5 3c
       -0.04817569 -0.04710511 0.03525943 0.029948454
0000f0 7c 99 00 3c 41 d8 03 bd ce 99 a0 3c 60 7d 2d 3b
       0.0078490935 -0.032188658 0.01960459 0.0026472434
000100 28 7e 2c bd 8c c0 4f 3c a1 c4 5b 3d 01 67 6d bd
       -0.0421125 0.012680184 0.053654317 -0.05795956
000110 70 01 70 bd 98 64 f7 3b b1 bf 35 3d 53 dd 12 bd
       -0.05859512 0.0075498335 0.044372264 -0.035855602
000120 44 87 54 3c 03 ac 29 3d 76 d4 94 3c 4c ee 50 3c
       0.012971703 0.04142381 0.018167716 0.012752127
000130 6d cf 70 3d 27 3d 1d 3d 34 bf 07 bd d8 e5 a6 3b
       0.058791567 0.038388398 -0.03314133 0.0050933175
000140 7e 9b f6 3c 5d db 54 3d d9 22 70 bd 7f b2 02 3d
       0.030103441 0.051967014 -0.058626983 0.03190851
000150 02 26 8c bc 0e 58 6c bd 44 4d 56 3c 32 66 03 bd
       -0.017107967 -0.057701163 0.013079945 -0.032079883
000160 6c d0 08 3c a0 b3 1c bd 37 a1 35 bd 28 d6 a3 bb
       0.008350473 -0.03825724 -0.0443432 -0.0049998946
000170 50 28 a2 bc 95 29 0d 3d e8 79 a6 3b 1b 65 3c 3d
       -0.019794613 0.034463484 0.0050804503 0.04599486
000180 f4 ec 34 3c 38 39 9b bc 0b 7b 23 3d 80 06 53 3b
       0.011042822 -0.018948182 0.039912265 0.003219992
000190 54 34 35 3c ca 40 9b bc 00 bf 5d 39 a4 a0 39 bc
       0.011059839 -0.018951792 0.00021147355 -0.011329804
0001a0 58 28 a4 bb 22 3b 3c bd 80 fe bd b9 b8 56 48 bd
       -0.005009692 -0.04595483 -0.00036238506 -0.048910826
0001b0 f4 b1 4f bc f7 e0 0b 3d 42 d4 27 bd 44 b0 22 bd
       -0.012676705 0.03415009 -0.04097391 -0.03971888
0001c0 a4 bc 6b bc 5a 54 84 bc ac 6f 23 3c 0c 47 20 3c
       -0.014388237 -0.016153503 0.009975355 0.009782564
0001d0 e6 c8 f4 3c 82 44 26 bd 98 43 88 bb 73 fd 06 3d
       0.029880952 -0.040592678 -0.0041584484 0.03295655
0001e0 cd c4 50 3d 30 d9 8c bb bf a7 0b bd 72 c3 8a 3c
       0.050968934 -0.0042983517 -0.034095522 0.016938899
0001f0 d3 72 09 3d 02 ca 16 bd 22 0f 0c bd 52 5c d5 3c
       0.03355677 -0.036813743 -0.03419412 0.026044998
000200 d8 49 87 bb 9f f6 63 bd 00 2a 0b bd 12 c2 c3 3c
       -0.004128676 -0.055655118 -0.0339756 0.02389625
000210 ee b9 a3 bc d3 97 26 3d d3 cd 3e 3d 24 71 0c 3c
       -0.01998612 0.040672135 0.046583008 0.008571897
000220 e8 ae 98 bb 56 3a 99 bc c0 45 43 bb cc ba 2f 3c
       -0.0046595223 -0.018704575 -0.0029796213 0.010725688
000230 c7 5c 38 bd 30 bc 66 bc 43 c3 48 bd a5 22 14 3d
       -0.045010354 -0.014082953 -0.04901434 0.036165852
000240 cc b4 19 bd fd 7d 5c 3d f8 de 78 bc c8 44 0a bd
       -0.037525937 0.05383109 -0.015189879 -0.033757
000250 6a ec e7 3c 24 ed 0f 3c 6d 21 27 3d 2e 85 c9 3c
       0.028310973 0.008784566 0.04080336 0.024599638
000260 c1 82 68 bd 47 a8 18 3d 18 ce 35 bc f6 58 d5 bc
       -0.05676532 0.037269857 -0.0110965 -0.026043396
000270 ab 46 19 3d cf 07 30 3d 50 23 54 bd 90 98 ae bb
       0.03742091 0.042976197 -0.05179149 -0.0053282455
000280 a9 34 46 3d 4e f3 ba 3c 71 56 4b 3d 4a 6d a5 bc
       0.048390064 0.022821095 0.049642984 -0.020193715
000290 d8 24 05 bd 0b 8c 4f 3d 42 35 c9 3c 55 b3 67 3d
       -0.03250584 0.050670665 0.024561528 0.05656751
0002a0 38 a1 c9 bc fc f7 1a bd c0 52 e2 bb 47 42 63 bd
       -0.024613008 -0.037834153 -0.006906837 -0.05548313
0002b0 aa 36 bd 3c 11 06 32 3d 7c c2 67 3c 90 c8 be bb
       0.023097355 0.043462817 0.01414549 -0.0058222488
0002c0 b2 55 ef 3c f9 33 19 bd 9f 1b 6c 3d 70 fe 6f bd
       0.029215667 -0.03740308 0.05764353 -0.05859226
0002d0 75 35 67 bd 5c 22 64 bc 21 27 45 3d 88 54 c1 3b
       -0.056447465 -0.013924208 0.04813302 0.0058999695
0002e0 ca 62 b9 3c fa ea 30 bd 5e 0a b0 3c 30 c3 d7 bb
       0.022630114 -0.04319284 0.021489318 -0.0065845475
0002f0 1e 7c c1 3c 45 75 2a 3d fe d3 d1 3c 88 3f a4 bb
       0.023618754 0.041615743 0.025613781 -0.0050124563
000300 50 e1 6d bb 2c 60 17 bd a6 99 ae bc 27 d8 1c 3d
       -0.0036297627 -0.03695695 -0.0213135 0.038292076
000310 80 91 c1 bc c3 e4 15 3d c8 69 bf bc 58 d9 60 bc
       -0.02362895 0.036595117 -0.02336587 -0.013723694
000320 80 5f a4 3a a7 7c 5d bd c0 3c 1a ba b0 9f c2 bb
       0.0012540668 -0.054073956 -0.0005883686 -0.0059394464
000330 70 76 ad bb ac fe 40 bc 35 48 3e 3d b3 1e 32 3d
       -0.00529366 -0.0117794685 0.04645558 0.04348631
000340 38 95 23 bd 4e 3c e0 3c 61 51 3d bd 63 79 4d bd
       -0.039937228 0.027372506 -0.046220187 -0.05016459
000350 ea 8e 93 3c 40 04 63 3a ee 30 e1 bc b2 ca 68 bd
       0.018012483 0.0008659996 -0.027489152 -0.05683393
000360 ae e0 ba bc 46 3a a1 3c 01 67 5f bd d8 78 6a bd
       -0.022812214 0.019681107 -0.05454159 -0.05724415
000370 88 f9 f4 3b 48 e0 2d bd 31 73 53 bd 14 fc b9 bc
       0.0074760355 -0.04245022 -0.051623527 -0.022703208
000380 a4 6f 1b bc 05 53 5b bd 84 29 21 bd d0 34 7d 3b
       -0.009487066 -0.05354597 -0.039346233 0.0038636215
000390 46 98 63 bd 44 b2 07 bc a3 d8 1b bd b4 51 27 bd
       -0.05556514 -0.008282248 -0.038048398 -0.040849403
0003a0 26 b9 bd 3c 89 c5 39 bd 02 e9 36 bd 85 a4 09 3d
       0.023159575 -0.0453544 -0.044655807 0.033604164
0003b0 0c 81 34 3c 11 cf 5b 3d 46 07 81 bc 01 29 e9 bc
       0.011017095 0.05366427 -0.015750539 -0.028461935
0003c0 08 b2 b2 bb 00 4e 9c 39 37 12 38 3d b8 69 70 bd
       -0.005453352 0.00029812753 0.044939246 -0.05869457
0003d0 c8 7a 89 bb 0e 88 d5 3c 91 e9 04 bd f1 49 f5 bc
       -0.004195545 0.026065852 -0.03244931 -0.029942485
0003e0 3e 48 e9 3c 48 44 67 bd 04 c4 64 3c 62 db 3a bd
       0.02847683 -0.056461602 0.013962749 -0.045619376
0003f0 da f0 ef 3c 2e 5f 4e bd 83 63 14 3d 79 7a 64 bd
       0.029289652 -0.05038374 0.036227714 -0.05578086

enc.model.1.conv.bias f4 [32]
000000 32 79 e6 bc f7 1d 31 3d c9 99 f0 3c d9 55 31 bd
       -0.028133962 0.043241467 0.029370205 -0.04329476
000010 8f b5 30 b9 7a d2 2a bd f4 b2 3a bd d3 77 a3 bc
       -0.00016852304 -0.041704632 -0.04558082 -0.019954598
000020 d5 5d 73 3d 1e 6e 14 bd c5 cc 3e 3d 5c 58 28 bd
       0.059415657 -0.03623783 0.046582002 -0.04109989
000030 40 b8 55 bc 95 17 41 3d 46 bd dd bb f4 5d a6 bc
       -0.013044417 0.04714163 -0.006766948 -0.020308472
000040 f0 b6 c6 bc 38 7c 25 bd b7 88 fb 3c 46 72 46 bd
       -0.024257153 -0.040401667 0.03070484 -0.048448823
000050 3c 33 2a bd f8 08 2e 3d 76 af 71 3d 67 67 fc bc
       -0.041552767 0.042489022 0.059005223 -0.030811025
000060 15 7c f3 39 09 00 b8 bc 61 35 17 3d da 03 6d bd
       0.0004644102 -0.022460954 0.03691614 -0.057865
000070 52 74 36 bd fa 8d 29 3d 97 da 7b ba 28 aa 18 bc
       -0.044544525 0.041395165 -0.00096074626 -0.009317912

enc.model.2.conv.weight f4 [32, 32, 3, 3]
000000 32 3e f7 3c 7a 40 c6 3c ed 31 24 bd e5 e4 09 3d
       0.030181024 0.024200667 -0.040086675 0.033665556
000010 f7 28 0c 3d b8 84 08 bc 3e d1 50 bd 2e b0 ca 3c
       0.034218755 -0.008332424 -0.0509808 0.024742212
000020 cd c8 0f 3d 3d a9 83 bd 85 9a 7d bd 8d 68 6f bc
       0.035103608 -0.06428764 -0.06191494 -0.014612329
000030 9a ad 32 bd 8a b4 d1 bc 98 83 17 3d d1 18 2d 3c
       -0.04362259 -0.025598783 0.036990732 0.010564999
000040 25 8e c1 3c a9 d8 90 3b a9 58 3e 3d 35 fc 67 3c
       0.02362735 0.004420359 0.04647127 0.014159252
000050 4c 2e fa 3b 3f 4e 00 3d 40 57 09 bd b6 79 23 3d
       0.0076349135 0.03132462 -0.033530474 0.039910994
000060 7e e5 cd 3a 14 9f 22 3d 85 04 50 bd ee 55 4e bd
       0.0015708653 0.03970249 -0.05078556 -0.050374918
000070 79 b9 00 3d ab 42 3b bd 70 eb 38 3b a5 43 3f 3d
       0.03142688 -0.045717876 0.0028216504 0.04669537
000080 f6 9b 21 39 51 57 47 bd d8 38 36 bd f7 75 2c bd
       0.00015412256 -0.048667256 -0.044487804 -0.042104688
000090 04 7f 46 bd 1f ce d9 3c a7 a2 85 3a 28 20 58 bc
       -0.048460975 0.026587544 0.0010195569 -0.01319126
0000a0 8d 4a 2c 3c c6 65 cf 3c c7 ff 16 bc f0 5a 37 3d
       0.010515821 0.025317084 -0.0092162555 0.04476446
0000b0 74 e2 95 3a 4b 62 d5 3c 37 a4 fd 3b 52 ae d4 3b
       0.0011435286 0.026047846 0.007740523 0.006490507
0000c0 22 11 3a 3d 9a dc 42 3d 65 97 52 3d 59 ac 80 bc
       0.045426495 0.047573663 0.051413912 -0.015707182
0000d0 f7 73 a5 bc 77 67 72 3d 92 4f db bc 88 19 cf 3b
       -0.020196898 0.059180703 -0.02677134 0.0063201822
0000e0 57 fb 08 bd a0 17 7b bc 86 48 b4 bc 6f ac 16 3d
       -0.03344282 -0.015325457 -0.022007238 0.03678554
0000f0 c4 37 d3 bc 14 a5 d1 bc 02 9e cc 3c 63 08 73 bc
       -0.025783427 -0.02559141 0.024977688 -0.0148335425
000100 a6 47 ec bb 19 81 65 bd 45 4e 11 bd 76 88 96 3c
       -0.0072106896 -0.05603132 -0.035475034 0.018375617
000110 8a a5 7a 3c c5 fa 84 bd 63 9e 5c bd dd 53 9f 3b
       0.015298257 -0.06493143 -0.053861987 0.004862292
000120 50 6b 64 bd 5c 26 28 bd 6f 3a 35 bd 10 75 5b bd
       -0.055766404 -0.041052207 -0.04424518 -0.053578436
000130 99 cc 18 bd b8 e6 00 3d dd a8 7f bd 43 fc 03 3d
       -0.037304495 0.03147003 -0.0624169 0.032222997
000140 1b d7 74 bd 0d 33 12 bc 30 19 a8 bc 61 96 37 3d
       -0.059775453 -0.008923304 -0.020519823 0.044821147
000150 fc 6f 54 bd 6c ac 35 bd af 89 78 bd 77 db d0 bc
       -0.05186461 -0.044353887 -0.06067818 -0.025495274
000160 a5 1d b2 3c a9 1a 69 3d 16 a4 2b 3d 42 c8 d2 bc
       0.021742651 0.05691019 0.04190453 -0.025730256
000170 7a e5 29 bd 72 8d 5e 3b 22 98 eb 3c f6 ca 2b 3d
       -0.04147861 0.003395882 0.028759066 0.041941606
000180 5f 64 03 3d 23 6f 28 bc 97 c7 66 bd 9c 02 42 bd
       0.032078143 -0.010280403 -0.056342687 -0.04736577
000190 18 f2 c8 3c 27 f1 7b bd 64 fd 52 bd 33 01 37 bd
       0.024529502 -0.061509278 -0.051511183 -0.044678878
0001a0 98 e5 d0 bc da 4b a8 3c 57 4b 0b 3d 79 81 22 3d
       -0.025500104 0.020543981 0.034007397 0.039674256
0001b0 b3 ee ae 3c 28 f5 92 3b 8e 6c b0 bc bf 52 f5 bc
       0.021354055 0.0044847913 -0.021536138 -0.029946683
0001c0 bf 3a 21 bd 9e af 19 bc d5 28 63 3d e6 09 fc bc
       -0.039362665 -0.009380249 0.055458862 -0.030766439
0001d0 f3 99 73 bc 18 bd 33 bc f4 c1 10 bd de 7e 1e bd
       -0.014868247 -0.010970376 -0.035341218 -0.03869521
0001e0 bd 6b 62 3b 7c b0 59 bd 1c ec 77 bc 9e 67 3c bc
       0.003454908 -0.053146824 -0.015131976 -0.011499314
0001f0 e0 28 03 3c f3 df aa bc 98 17 28 bd b4 87 e0 bc
       0.008005351 -0.02085874 -0.041038126 -0.027408458
000200 18 b3 c7 bc ff 4e 6f 3c ef db 68 3b 9d f8 e7 bc
       -0.02437739 0.0146062365 0.0035531481 -0.02831679
000210 50 ec 38 3d ff f7 5e bc 0d 4c 99 3c b6 8e b7 bc
       0.04514724 -0.013608932 0.018713022 -0.022406917
000220 b9 a8 4c bd 5e c4 68 bd 32 ef a0 bc b5 c9 14 3d
       -0.049965594 -0.056827895 -0.019645307 0.036325175
000230 61 c5 17 3d 6a 1b 93 3c 6e 86 88 3c c2 26 22 bd
       0.03705347 0.017957408 0.016665664 -0.039587744
000240 29 fc da bc 7e 80 b6 ba 0b b5 70 bd e1 da 81 bd
       -0.026731567 -0.0013923792 -0.058766406 -0.06340576
000250 ee 60 5d bd 91 5a 15 3c 95 4c ae bc b2 69 09 bd
       -0.054047517 0.009115831 -0.021276752 -0.033548065
000260 c2 e4 8b 3c 81 92 56 bd 14 00 46 bd dd 5d cc bc
       0.017076854 -0.05238581 -0.04833992 -0.024947101
000270 ba fb b2 3c 9f b4 40 bb a4 1f 82 bd 53 e1 22 3d
       0.021848548 -0.0029404534 -0.06353691 0.039765667
000280 39 fc 45 bd 96 32 ed 3c 1b fe 50 3c c0 9b c8 3b
       -0.04833624 0.028954785 0.012755896 0.0061220825
000290 b5 78 1f 3d 06 3e 61 3c f3 64 8a bd 93 96 5f 3c
       0.038933475 0.013747698 -0.06757536 0.01364674
0002a0 ea 9a 50 3d 35 19 02 bd 7c 28 16 3d 9f 5d 43 3d
       0.050928988 -0.03176232 0.036659703 0.047696706
0002b0 ba 7f 84 bc 00 3e ad 38 40 30 fa bb 15 7b 55 3d
       -0.016174186 8.260831e-05 -0.0076351464 0.052119333
0002c0 2e 37 ca 3c a3 f8 2a 3d 88 7e 5f bd 26 ce c3 bc
       0.024684515 0.041741025 -0.05456403 -0.02390201
0002d0 ae 53 55 bd c7 30 a4 3b d9 4f 0b bd bc 4c 19 3c
       -0.052081756 0.0050106975 -0.034011696 0.009356674
0002e0 79 c3 b2 3c 17 be 3b bc dd 0e 89 ba bd 08 55 bd
       0.021821724 -0.011458895 -0.00104567 -0.052010287
0002f0 6f 5b a4 bc 5a ec 38 3a 3a 1c 07 3d fb 33 69 3c
       -0.02006313 0.0007054262 0.032985903 0.0142335845
000300 b1 5d dc 3b 26 75 ac 3c 1d 42 15 3d 5a 7c 67 bb
       0.006725036 0.021051954 0.036440004 -0.0035321922
000310 ab de 44 3d 11 56 3a bd 8f 29 29 3c 77 68 23 bc
       0.048063915 -0.045492236 0.01032485 -0.009973637
000320 1b 1a 08 3d b6 03 85 bd c9 99 98 3c c2 0c 78 bd
       0.03322802 -0.064948484 0.018628018 -0.06055904
000330 02 ca d7 bc 00 ea ef bc 56 61 ef bc b0 7f ea bc
       -0.026341442 -0.029286385 -0.029221218 -0.02862534
000340 44 c7 44 bd 35 49 53 bd b0 ef 44 bc bd 1d 45 3d
       -0.048041597 -0.051583488 -0.012020037 0.048124064
000350 9a 78 81 bc bb 12 23 bd 58 d0 89 bc 15 03 47 bd
       -0.015804578 -0.039812785 -0.016822979 -0.048586924
000360 0d 9c 4c bc c0 0c 1d 3d a5 e3 8a bd 98 c8 ac 3c
       -0.012488377 0.038342237 -0.06781701 0.021091744
000370 1d 25 05 3d 7f e6 04 3d 1a b7 43 bd ee 96 a0 bb
       0.032506097 0.03244638 -0.04778204 -0.0049008047
000380 84 46 b3 3c 2c 0d 6a bd 5c 4f 21 3d 12 5c 36 bc
       0.02188421 -0.057141468 0.039382324 -0.01113035
000390 5b b5 70 bd 50 48 b0 bc 66 33 b5 bb e0 06 f5 bc
       -0.058766704 -0.021518856 -0.005529809 -0.029910505
0003a0 ae d5 f4 bc 54 04 51 bc 99 27 39 3c c3 0e 88 3c
       -0.029887047 -0.01275738 0.011300945 0.016608601
0003b0 7d c0 84 bd 49 a1 36 bc 05 04 85 3b 9a 18 21 3d
       -0.06482027 -0.011146852 0.004059317 0.039330103
0003c0 76 b2 7e 3c 75 cd eb 3c 3e e6 02 3c 98 9a bc bb
       0.015545478 0.028784493 0.007989464 -0.0057557337
0003d0 58 64 05 bd 34 88 c8 bc 9e 15 9c 3c d0 14 4a bc
       -0.0325664 -0.02447901 0.019053277 -0.012334064
0003e0 6b 34 5e 3d 62 57 17 bd a3 1d 24 3d 0f 91 1a 3d
       0.05424921 -0.03694857 0.040067326 0.037735995
0003f0 4c b2 bb 3c fb 57 07 3d 67 a8 3d bd fa 1d 1c 3d
       0.022912167 0.03304289 -0.04630318 0.038114525

enc.model.2.conv.bias f4 [32]
000000 36 ec 98 3c 23 2a 9a 3c af 58 c2 bc 39 a4 15 bd
       0.018667322 0.01881892 -0.023723928 -0.036533568
000010 24 f2 6d bc 28 3d 35 3c 23 a3 84 bc 27 88 4d 3c
       -0.014523063 0.011061944 -0.01619107 0.012544668
000020 58 47 19 bd 29 68 40 bd d7 7f 43 3d 8d eb 34 bd
       -0.037421554 -0.046974335 0.04772934 -0.04416995
000030 10 90 5d 3b 6b 59 32 3d b8 62 55 3c 18 a3 6b 3d
       0.0033807792 0.043542307 0.013024025 0.057528585
000040 74 f4 5a bc df 62 8a bd 7e 32 0f bd 3e 3c ba bc
       -0.013363946 -0.067571394 -0.034960262 -0.022733804
000050 0f 12 1e bd c1 ea 97 bc ad df aa 3c 0a c5 85 3d
       -0.03859144 -0.018544557 0.02085861 0.06531723
000060 01 ae 46 3d a7 fa 06 3d 84 e4 66 bd 0c 8f b0 39
       0.048505787 0.032953884 -0.056370273 0.00033675914
000070 19 d0 1b 3d 7f 3b 57 3d b0 5c 1f bd a4 9c aa 3c
       0.038040254 0.052546974 -0.038906753 0.020826645

enc.model.3.conv.weight f4 [10, 32, 3, 3]
000000 bf a7 0a 3d cc 9b 52 bc da 43 5d bd 7e 83 de 3c
       0.03385138 -0.012854528 -0.054019786 0.02716231
000010 2a d1 f6 3c 0e 79 3f bd 71 09 3c 3d e0 c5 64 bb
       0.030129034 -0.046746306 0.04590744 -0.0034907982
000020 dd 22 35 bd 38 90 a7 3b 91 64 e3 3c 51 c7 4f bb
       -0.0442227 0.0051136278 0.027757915 -0.0031704495
000030 2b d5 3a bd b6 88 17 bd 23 fd f0 3c b2 5f ce 3c
       -0.04561345 -0.036995612 0.02941758 0.025192115
000040 a4 c4 04 3d 96 24 86 3c a3 52 1c 3d f8 2c 53 bc
       0.032414094 0.016374867 0.038164746 -0.012889139
000050 3e b9 e0 3c 9a de 86 3c 9c ed 27 3c 75 36 57 3d
       0.02743208 0.016463567 0.010249522 0.05254217
000060 1e b2 bc bc 67 b0 37 3d 20 d7 bc bc fd 97 41 3d
       -0.023034152 0.044845965 -0.023051798 0.047264088
000070 f8 11 76 bc 05 ed 1f 3d a2 33 9e bc 7e e1 ff b9
       -0.0150189325 0.0390444 -0.01931173 -0.00048805395
000080 9a 9c 3d 3d 00 63 a8 bb c1 62 26 bc 79 b1 f6 bc
       0.046291925 -0.005138755 -0.010155381 -0.030113922
000090 61 fd 2c 3d 32 75 d2 3c fb 05 96 bc 38 b7 80 bc
       0.04223383 0.025690649 -0.018313399 -0.015712366
0000a0 6e a3 41 3d 21 55 f9 3c d3 97 43 3d 70 f4 14 bd
       0.047275 0.0304361 0.047752213 -0.036365926
0000b0 cf cf e1 bc 5a 34 1e bd f2 17 32 bd 68 f7 d4 bb
       -0.027564911 -0.038624145 -0.043479867 -0.0064992197
0000c0 80 fc 1a bb 55 1e f3 bc e4 65 96 bc a8 66 a1 3b
       -0.0023649037 -0.02967755 -0.018359132 0.0049255677
0000d0 64 92 3d bc e6 47 3a bd 5b 81 46 3d ae 84 cc bc
       -0.011570547 -0.045478724 0.048463207 -0.02496561
0000e0 34 87 9e 3b 42 f7 e6 3c f6 18 73 bd 23 e2 53 bc
       0.004837895 0.028194074 -0.059349976 -0.012932333
0000f0 78 81 39 bd 8f 70 52 3d 74 2a 04 bd 25 f5 24 3d
       -0.045289487 0.051376875 -0.03226705 0.04027285
000100 70 de 74 3b 4a 55 cd bc 9e 47 c2 3c 0d a4 40 bd
       0.0037364028 -0.025065083 0.02371579 -0.04703145
000110 a8 9e af bc 88 8b eb bb 51 d6 68 3d 23 7c 52 bd
       -0.021437958 -0.0071882643 0.056845013 -0.051387917
000120 4a 10 b3 3c cd b2 6e 3d c4 32 51 bc 24 4f 00 bd
       0.021858353 0.058275986 -0.012768451 -0.031325474
000130 df 76 1e bd 88 11 44 bc b1 bb 43 3d 9c 09 19 bd
       -0.038687583 -0.01196707 0.04778642 -0.03736268
000140 c7 08 66 3d 8e 50 3e bd 61 d2 46 3d 40 28 61 3b
       0.056160714 -0.04646354 0.048540477 0.0034356266
000150 d6 72 88 bc 48 98 44 bd 28 cd ef bc a3 3a 18 bd
       -0.01665632 -0.04799679 -0.02927263 -0.037165295
000160 1a 55 54 bd 00 c3 a1 bc 17 67 31 3d 91 d2 6b bd
       -0.05183897 -0.019746304 0.043311205 -0.05757386
000170 f3 24 3e 3d 9c bc 7e 3c b7 20 e2 3c a0 8e db bb
       0.046421956 0.015547898 0.02760349 -0.006700352
000180 c2 bf e5 bc 56 12 d9 3c 9d 86 30 3d 5e 71 88 3c
       -0.028045539 0.026498001 0.043097127 0.01665562
000190 4e bc e9 3c 6b 4f 71 3d 2c 8c 31 3c 41 42 f0 bc
       0.028532173 0.05891363 0.010836642 -0.029328467
0001a0 15 68 00 3d 3c 28 03 bd 23 17 4c 3d 94 d5 1b 3c
       0.03134926 -0.032020792 0.049826752 0.00951137
0001b0 72 46 de 3c 7c 52 14 3c 81 18 4d 3d 5b 37 01 3d
       0.0271332 0.009052869 0.050072197 0.03154693
0001c0 a1 6e 25 3d df 82 e5 bc 8c c4 2a 3c 2c 22 10 3d
       0.040388707 -0.028016506 0.010422837 0.03518884
0001d0 c1 de 13 3d cc dc 9c bc 43 aa 36 3d be ae 5b bd
       0.036101107 -0.019148253 0.044595968 -0.053633444
0001e0 7f 4e 39 3d 64 11 c1 bc d4 5f 26 bd 29 4e 4a 3d
       0.045240875 -0.023567863 -0.040618733 0.049390946
0001f0 07 ca c7 bb 76 bf bc bc 2a 44 fe 3c 56 b7 16 3d
       -0.0060970816 -0.023040514 0.031038363 0.036795937
000200 ef 01 e2 3a fc e3 2c bd 4c d9 01 bd 91 88 1a bd
       0.0017243008 -0.04220961 -0.03170137 -0.037727896
000210 4e 04 ac 3c 04 62 78 bd 57 4f 17 bd 92 ad 68 bd
       0.020998146 -0.06064035 -0.0369409 -0.056806155
000220 71 00 c1 bb fa 04 45 3d aa 04 9b 3c 48 fc 49 3a
       -0.005889945 0.04810045 0.018923122 0.00077051343
000230 00 7e b3 3c ba 55 1a bd cc 42 97 bc 8a b5 26 3d
       0.021910667 -0.03767941 -0.018464468 0.040700473
000240 df 22 4a bd 7e c1 80 bd 78 e6 9e bc 1b 52 58 bd
       -0.049349662 -0.06286906 -0.019397005 -0.052812677
000250 e0 1d 91 bc 13 3c 20 3d 40 1c 31 ba fd c7 24 3c
       -0.01771444 0.03911979 -0.0006756224 0.010057447
000260 00 a5 30 3b e9 e2 25 bd 41 8b f2 bc f8 fb e1 3b
       0.0026953816 -0.0404996 -0.029607417 0.006896492
000270 9d 0d 53 3d 48 bd 30 bd eb c4 1e 3d ba a8 13 bd
       0.051526655 -0.043149263 0.038762014 -0.036049582
000280 ff ef 50 bd 5c 14 36 3c bd 52 2c 3d 8c 01 16 3c
       -0.051010128 0.0111132525 0.042071093 0.009155642
000290 f3 48 13 3d f8 81 90 3b c8 88 06 bc 4c 6d 67 3c
       0.03595824 0.0044100247 -0.008211322 0.0141251795
0002a0 1c 21 6c 3c 5c 33 7f bc 9c 77 5f 3c 30 06 6d 3b
       0.014412191 -0.01557621 0.013639357 0.0036167018
0002b0 7d ae 59 bd 9b 32 31 3d 9e 4d 61 bd 96 9b 9a 3c
       -0.05314492 0.04326115 -0.055005662 0.018873017
0002c0 a1 6c 3c bd d8 ce 3a bc c2 5f dd 3c fe ac af 3c
       -0.046002034 -0.011401854 0.0270232 0.021444794
0002d0 eb 6f 37 3d 1e 70 b2 bc ca 40 94 3c 76 ab d7 3c
       0.044784468 -0.021781977 0.0180973 0.026326876
0002e0 ff 52 5f bd 81 e7 0b bd d2 85 fa 3c fc dd 29 3c
       -0.05452251 -0.034156326 0.030581389 0.010367867
0002f0 1c 23 1f bc 7c 90 7c bc 2f 77 93 3c b9 b9 13 3d
       -0.009712961 -0.015415307 0.018001167 0.03606579
000300 9b 10 33 3d 66 de e4 3c 05 b3 37 3c 92 96 3c bd
       0.043717008 0.02793808 0.011212115 -0.046042033
000310 4e 63 ea 3c a4 3b fe bc 1f fe 09 3d ea e5 28 bd
       0.028611805 -0.031034298 0.033689614 -0.041234888
000320 a6 11 9e 3c a0 14 dc ba bd bb 2e 3d c8 d7 d2 3b
       0.019295525 -0.0016790815 0.04265951 0.0064344145
000330 7a 02 ee 3c 93 01 61 bd 9a 96 91 3c 61 55 6d bd
       0.029053915 -0.054933142 0.017772008 -0.05794275
000340 7e 87 72 bd 88 ae 82 bd f5 1d 2e bd f8 c9 f4 bc
       -0.059211247 -0.063809454 -0.042509038 -0.029881462
000350 0c 23 22 3c 78 eb fe 3b 7d be b9 bc 00 27 87 3c
       0.009896051 0.007779535 -0.02267384 0.016498089
000360 55 65 5f bd b7 7f 5a 3d bf 0d 01 bd 60 c1 c9 bc
       -0.054539997 0.053344455 -0.03150725 -0.024628341
000370 30 a4 04 3b 0a e6 b8 bc c6 02 b3 3c 48 fc bf bb
       0.0020239465 -0.022570629 0.021851908 -0.0058589317
000380 6a c1 ea 3c 90 11 10 bc b6 09 e5 bc 44 f2 2d 3b
       0.02865668 -0.00879325 -0.027958732 0.0026542107
000390 ea 7a b8 3c 0b c9 d8 3c c0 e8 a9 bb 91 55 15 3d
       0.022519547 0.026463052 -0.0051852167 0.036458556
0003a0 82 8d 15 bd 71 72 a9 bc e7 3d 70 bd 1a ac 36 bd
       -0.036511905 -0.020684453 -0.058652785 -0.044597723
0003b0 70 e5 4e bd a6 e6 24 bd f6 ec 9f 3c a2 d7 0c bd
       -0.050511777 -0.040259026 0.019522171 -0.03438533
0003c0 4a f2 6a bd e1 13 61 bd 34 52 47 bd de 9e 87 3c
       -0.05735997 -0.0549506 -0.04866238 0.016555246
0003d0 fe d4 da bc 07 ad 5b bb 96 57 c6 3c 13 81 2e 3d
       -0.02671289 -0.003351988 0.024211686 0.042603564
0003e0 66 9e 2a bd 71 b0 2d 3d 10 6f b0 3c 00 ee 8f b9
       -0.041654967 0.042404596 0.021537334 -0.0002745241
0003f0 64 f2 b4 bc e5 c7 42 3c c9 65 7d bb ae b1 ad 3c
       -0.022088237 0.011888479 -0.0038665405 0.021202888

enc.model.3.conv.bias f4 [10]
000000 f9 3b 6f bd 0f 3a 7d bd 4f 7f 2c 3d 2f 6c d5 3b
       -0.058406804 -0.061822947 0.0421136 0.0065131406
000010 55 f0 72 bd 66 7e f0 bc d1 f1 1b 3c fd d6 48 3d
       -0.05931123 -0.029357146 0.009518103 0.049033154
000020 78 5c 3c 3b 26 f4 2e 3c
       0.002874164 0.010678327

prototype_layer.prototype_vectors f4 [2, 4, 40]
000000 ac e1 6f b8 c2 b7 c7 bb ad 5b 00 bd 61 3f a7 3d
       -5.7192214e-05 -0.0060949037 -0.03133743 0.081663854
000010 af ea 0e bb a7 bd 25 3c 4b ac e1 3c d5 e3 c0 bd
       -0.0021807363 0.010116017 0.027547976 -0.094184555
000020 f2 24 b4 3d 18 63 39 3c 12 f8 e6 3c 91 3d b9 bd
       0.08796109 0.01131513 0.028194461 -0.09044946
000030 6b 66 5d ba 75 b2 b4 3e 60 df cd 3c f8 d6 bd bd
       -0.00084457424 0.35292402 0.025130928 -0.09269518
000040 93 b0 a1 ba 72 5a 5f 3c 6c b0 e7 3c b3 ba b9 bd
       -0.0012335948 0.013632404 0.028282367 -0.09068813
000050 e0 76 ac 3a 35 20 ed 3e 79 ab d0 3c 91 80 79 bd
       0.0013157986 0.46313635 0.02547239 -0.060913626
000060 18 c7 8c b8 8d 16 b7 3e 4a 46 e5 3c be 54 95 bd
       -6.712804e-05 0.35759392 0.027987618 -0.07291554
000070 23 72 7f ba 00 4b c9 bc 21 4b 15 bd 33 8b 61 3d
       -0.0009744486 -0.024571896 -0.0364486 0.05506439
000080 7d 77 c5 3d 7f 63 36 3c 51 75 15 3f e2 b8 88 bd
       0.09641931 0.01113212 0.58382136 -0.066758886
000090 06 dd 8e ba 4f 3e 45 3c 77 b8 85 3c 2d 8a a5 bd
       -0.001089961 0.012038781 0.016323311 -0.080829956
0000a0 25 67 2c bb 0c 71 81 bb c6 68 ee bc 0d 41 bd 3d
       -0.0026306596 -0.003950244 -0.029102694 0.09240923
0000b0 38 9e ec b8 02 f3 02 3c aa b5 c5 3c 85 f7 d9 bd
       -0.000112828275 0.007992508 0.024134476 -0.10642914
0000c0 62 56 70 3d ab 68 28 3c 8c 17 c9 3c ac 5c d3 bd
       0.05867613 0.010278861 0.02454736 -0.1032041
0000d0 0e 3e 0e 3b 5d ab ab 3e 64 48 ab 3c a8 7c d0 bd
       0.0021704468 0.33529177 0.020908542 -0.10180026
0000e0 22 d8 bf 39 4c 0f 1d 3c d5 61 cd 3c 4c 6f cd bd
       0.0003659139 0.009586167 0.025071064 -0.10030994
0000f0 5c 77 e9 3b 63 0b d6 3e d1 49 af 3c 9f 02 90 bd
       0.0071248244 0.41805562 0.021397503 -0.0703175
000100 db 9e f4 3a 75 05 f1 3e f3 92 cd 3c 34 53 b8 bd
       0.0018663065 0.47074476 0.025094485 -0.09000245
000110 c7 3c 68 bb 31 13 a2 bc 5f 7e 05 bd b3 00 86 3d
       -0.0035436617 -0.019784542 -0.03259122 0.06543102
000120 ba c3 cc 3d 54 f6 da 3b da 40 10 3f be d4 aa bd
       0.099982694 0.0066821966 0.56348956 -0.083413586
000130 bd e7 65 3a a8 fe 3b 3c 84 2c 55 3c 41 82 c1 bd
       0.00087701884 0.011474289 0.013011102 -0.09448672
000140 fb 5b b9 39 10 ed 25 bb 43 c4 f8 bc 91 fc c8 3d
       0.0003535448 -0.0025318302 -0.030367022 0.09813798
000150 5e 65 08 3b 7d 48 e0 3b 96 97 d7 3c 60 f9 e0 bd
       0.0020812373 0.006844579 0.026317399 -0.109850645
000160 e6 cb 0d 3c 6a 80 11 3c 44 ea cb 3c 46 b7 da bd
       0.00865457 0.008880714 0.02489198 -0.10679488
000170 93 c7 2a 3b 02 a5 50 3e 13 22 b4 3c 49 a7 d0 bd
       0.0026058897 0.20375445 0.021988904 -0.10188157
000180 f3 08 87 ba 18 cd 19 3c 33 55 d0 3c e0 a7 ce bd
       -0.001030235 0.009387277 0.025431251 -0.10090613
000190 5e 4f 3d 3c af 61 d5 3e d7 f4 c9 3c 37 32 93 bd
       0.011554567 0.4167609 0.024652882 -0.07187312
0001a0 21 a6 bb 3c cc 16 b9 3e 22 11 e3 3c ad 6e b2 bd
       0.022906365 0.36150205 0.02771813 -0.08712516
0001b0 a5 b4 c4 bb 8b 23 bf bc 20 d7 13 bd dc d4 87 3d
       -0.00600298 -0.023332378 -0.03609383 0.066323966
0001c0 32 14 53 3d 13 d8 ff 3b 1d 1d 81 3e 78 b4 a8 bd
       0.05153293 0.0078077405 0.25217524 -0.08237547
0001d0 b7 42 7a ba f9 09 0d 3c d5 00 4e 3c 15 78 c0 bd
       -0.00095466845 0.008608335 0.012573441 -0.09397904
0001e0 55 6f 21 ba 85 b2 b7 bb cc af 00 bd 04 dc b1 3d
       -0.00061582524 -0.005605998 -0.031417653 0.08684543
0001f0 98 20 b7 ba 89 c3 3e 3c 15 57 e6 3c ca 0e cd bd
       -0.0013971506 0.011643299 0.028117696 -0.100125864
000200 56 ba c1 3d 4d 20 4d 3c a2 a6 ec 3c c5 ec c5 bd
       0.09459369 0.012519908 0.02888805 -0.09664301
000210 77 a6 cb b9 3a 81 ac 3e 54 42 cc 3c e8 23 bd bd
       -0.00038843203 0.33692342 0.024933971 -0.09235364
000220 86 d1 8a ba c3 2b 45 3c eb 59 ed 3c 1c a0 c1 bd
       -0.0010591007 0.012034359 0.02897354 -0.094543666
000230 92 99 87 39 90 c2 f0 3e 74 5e c8 3c 10 d1 85 bd
       0.00025863625 0.4702344 0.024459101 -0.06534016
000240 bc cb 13 3a 21 e5 63 3e e5 e5 ea 3c 68 80 a5 bd
       0.0005637964 0.22255374 0.028674075 -0.08081132
000250 fe 13 26 bb 48 18 ba bc 5c 30 1e bd f7 84 68 3d
       -0.0025341506 -0.022716656 -0.038620338 0.05676743
000260 44 69 d1 3d 58 49 41 3c ea 0c 0d 3f 69 83 93 bd
       0.10225156 0.011797272 0.5509783 -0.07202799
000270 e3 42 fb b9 37 6d 52 3c db 0b 67 3c 38 55 b7 bd
       -0.00047924285 0.012843422 0.014101948 -0.08951801
000280 d4 8d 90 bb a7 0f b5 ba 98 a4 dd bc b7 59 c3 3d
       -0.0044114385 -0.0013813869 -0.027056023 0.09538596
000290 53 88 b8 3a b7 f6 d4 3b 29 81 b8 3c 66 3a da bd
       0.0014078714 0.0064991373 0.022522526 -0.1065567
0002a0 ee d5 79 3d 8d 7b 1e 3c 9b 2a bf 3c 2d a8 d7 bd
       0.060995035 0.0096730115 0.023335746 -0.10530124
0002b0 21 70 79 3b f3 2a 91 3e b2 25 b3 3c 96 69 d0 bd
       0.0038061219 0.2835308 0.02186856 -0.10176389
0002c0 6f 92 e3 3a a8 4e bd 3b a7 be cb 3c 59 6a c9 bd
       0.0017362366 0.005777199 0.024871184 -0.09834737
0002d0 f2 76 9a 3b de 9f b4 3e 36 7a ac 3c 95 f8 9c bd
       0.0047138864 0.3527822 0.021054368 -0.07664601
0002e0 4c d8 75 3b 56 d3 e5 3e bd d9 b3 3c 7c 6a af bd
       0.0037512956 0.448878 0.021954412 -0.08565232
0002f0 88 1b c0 bb 7b 0f 88 bc 77 f2 1d bd 5a b3 88 3d
       -0.005862657 -0.016608944 -0.03856131 0.066748336
000300 18 da ce 3d 76 54 ee 3b cf 27 0e 3f a3 2d a7 bd
       0.10100192 0.007273252 0.55529493 -0.081630014
000310 42 da b7 3a 9f 68 d7 3b 1d b9 3a 3c b7 90 c2 bd
       0.0014026838 0.006573751 0.0113966735 -0.095002584
000320 31 5a 3f ba cb b6 0c bc 0b 0c 02 bd f9 53 b2 3d
       -0.00072995113 -0.008588503 -0.031749766 0.08707423
000330 5f 99 82 ba 98 23 30 3c 19 78 f7 3c 0d 9d c8 bd
       -0.0009963921 0.010750674 0.030208634 -0.0979558
000340 34 6d 7b 3b 82 34 52 3c c2 e2 f7 3c a8 72 be bd
       0.003836465 0.012829902 0.030259494 -0.09299213
000350 c3 32 26 bb b1 1d 52 3e 4f a5 e4 3c 65 dd b8 bd
       -0.0025359846 0.20519139 0.027910857 -0.09026603
000360 fb 61 ec b9 3e 07 43 3c b9 44 e9 3c a2 9a c1 bd
       -0.0004508643 0.011903582 0.028475152 -0.09453322
000370 63 5b d6 3b 5d dd d8 3e d7 c0 e6 3c 8d 4e 7a bd
       0.006541656 0.42356387 0.028168125 -0.061110068
000380 e5 32 92 3c 93 d7 be 3e 0a ad ec 3c 19 db a6 bd
       0.017846534 0.37273845 0.028891105 -0.08147258
000390 0e e0 16 bb e2 ed 97 bc 29 85 24 bd 61 fa 5f 3d
       -0.002302173 -0.018546049 -0.040166054 0.05468214
0003a0 90 25 67 3d a6 6e 59 3c 98 19 c3 3e 6a 75 96 bd
       0.056432307 0.01327101 0.38105464 -0.07346614
0003b0 69 2c 0b ba d9 96 46 3c ab 17 58 3c 09 d4 ad bd
       -0.0005309047 0.012120926 0.013189237 -0.08487708
0003c0 b1 9f 16 3a 39 7f 1c bc 20 2c 05 bd a6 83 a4 3d
       0.0005745842 -0.009551817 -0.032512784 0.080329224
0003d0 e9 64 80 bb 2e 13 5b 3c a2 66 f6 3c 77 e4 c8 bd
       -0.0039182794 0.013371272 0.030078236 -0.09809201
0003e0 1f 27 bc 3d 48 9b 61 3c 20 cb f6 3c b2 33 be bd
       0.09187149 0.013769932 0.030126154 -0.09287204
0003f0 8a ee 9d ba af bc 62 3e fa 56 d2 3c 6f b8 bd bd
       -0.001204924 0.2214229 0.02567624 -0.092636935

dec.model.0.conv.weight f4 [10, 32, 3, 3]
000000 96 4f 34 bf 3a 1c 2d bf 9e 56 14 bf 17 f4 43 bf
       -0.7043394 -0.67621195 -0.5794467 -0.76544327
000010 f0 6c 10 3d d2 59 0b 3f 91 b5 60 bf 7a f0 94 3e
       0.03526014 0.5443393 -0.8777705 0.2908972
000020 13 e5 3f 3f d6 11 51 bf 1b d8 33 bf 3b f9 03 bf
       0.74958915 -0.8166784 -0.70251626 -0.5155217
000030 99 e9 42 bf f1 7f 8d 3e 3c 57 28 3f cb 4b 5e bf
       -0.7613769 0.27636674 0.6575811 -0.868344
000040 89 6d a5 3e 9a 35 53 3f 5d f3 32 bf d8 95 53 bf
       0.3231013 0.82503664 -0.6990259 -0.8265052
000050 bd 99 0d bf 1e fb 43 bf a1 11 9f 3d f6 2e 0f 3f
       -0.5531271 -0.7655505 0.07767034 0.5593103
000060 cb c4 51 bf eb 0d 10 3e 58 29 2f 3f 46 52 57 bf
       -0.8194091 0.1406781 0.6842246 -0.84109914
000070 41 cf 38 bf 3c d6 01 bf eb 32 42 bf a1 4e 4c 3e
       -0.72191244 -0.5071752 -0.75858945 0.1995187
000080 a8 e4 1a 3f 4b e3 5b bf 85 ce 8a 3e 39 5d 41 3f
       0.6050515 -0.85893697 0.27110687 0.7553287
000090 39 6a 54 bf 95 aa 35 bf 2f 17 08 bf f6 ef 46 bf
       -0.8297458 -0.7096341 -0.53160375 -0.777099
0000a0 31 ff bb 3d a1 59 24 3f 20 3d 53 bf ad ee 96 3e
       0.09179533 0.6419926 -0.82515144 0.2947897
0000b0 24 78 2b 3f 14 9f 50 bf c6 1e 3a bf 2d 4f f1 be
       0.66980195 -0.81492734 -0.72703207 -0.4713072
0000c0 b8 b9 3f bf 3d c0 d7 3d 5c 07 14 3f 93 d6 54 bf
       -0.7489276 0.105347134 0.5782373 -0.83139914
0000d0 86 7b 73 3e 8c 80 3d 3f 46 7d 34 bf 80 ad 51 bf
       0.23777589 0.7402427 -0.7050365 -0.81905365
0000e0 61 6c 08 bf 3c ab 4c bf 9b 00 8e bc 08 aa 1d 3f
       -0.53290373 -0.7994878 -0.017334273 0.6158757
0000f0 1f 4d 64 bf bd 16 0a 3e 56 ff 3a 3f 33 38 4e bf
       -0.8918018 0.13485236 0.7304586 -0.80554503
000100 a7 42 41 bf 19 53 ec be 1c 92 4d bf 85 6f 8c 3d
       -0.7549233 -0.46157148 -0.8030107 0.06857208
000110 6a 65 0a 3f 68 13 56 bf 2f 55 17 3e ec 4e 41 3f
       0.54060996 -0.8362336 0.14778589 0.7551105
000120 77 41 48 bf 27 d4 3d bf c7 b3 fa be 4d f3 38 bf
       -0.7822489 -0.74151844 -0.48965284 -0.7224625
000130 95 a3 57 3c de 9d 15 3f f7 a2 5a bf 0e 51 1c 3e
       0.01316156 0.5844401 -0.85404915 0.15265295
000140 a5 07 20 3f 2d 02 51 bf 16 22 4f bf c3 3e 14 bf
       0.62511665 -0.81643945 -0.80911386 -0.57908267
000150 81 7f 43 bf 3f b4 66 3e e3 0e 10 3f 23 a3 54 bf
       -0.7636643 0.22529696 0.56272715 -0.83061427
000160 f9 8f a8 3e 81 3a 0f 3f e2 cb 37 bf b6 de 40 bf
       0.32922342 0.55948645 -0.71795475 -0.7533983
000170 68 98 13 bf 56 ae 40 bf 8e 88 9b 3d ed e5 24 3f
       -0.5765443 -0.75266016 0.07594405 0.6441334
000180 27 14 6f bf 07 65 10 3e 52 be 39 3f 05 ce 49 bf
       -0.93390125 0.14101039 0.7255603 -0.78829986
000190 4c d4 42 bf 1f 75 0f bf b4 af 5d bf d4 43 92 3e
       -0.7610519 -0.5603809 -0.86596227 0.28567374
0001a0 da 62 31 3f a9 cb 69 bf 83 b2 a0 3e 2c 8e 3f 3f
       0.6929146 -0.91326386 0.31386194 0.7482631
0001b0 14 c0 45 bf d3 a2 42 bf e4 fd 17 bf 37 4a 3d bf
       -0.7724621 -0.760297 -0.5937178 -0.7394137
0001c0 0a 6f fd 3d 09 c8 11 3f d0 93 65 bf 0f a0 95 3e
       0.12374695 0.56945854 -0.8967867 0.29223678
0001d0 3a bf 32 3f a2 62 3e bf 2a 56 44 bf bb e3 11 bf
       0.6982304 -0.7436925 -0.76693976 -0.56988114
0001e0 da 91 42 bf 79 38 bf 3d 38 08 35 3f 3a eb 5f bf
       -0.760038 0.09336943 0.70715666 -0.874683
0001f0 02 79 67 3e 46 a4 47 3f 67 33 31 bf c2 d2 3f bf
       0.22604755 0.77985036 -0.6921906 -0.74930966
000200 83 da 10 bf ff af 43 bf c1 53 e8 bc c8 4c 10 3f
       -0.5658342 -0.76440424 -0.02836025 0.5636716
000210 57 87 5a bf 84 e4 e0 3d 06 46 33 3f c1 10 51 bf
       -0.8536276 0.10981086 0.7002872 -0.8166619
000220 d7 d0 35 bf e0 ff 01 bf da 56 42 bf 7c c5 a9 3e
       -0.7102179 -0.5078106 -0.75913775 0.3315848
000230 27 c9 3b 3f 99 f7 6b bf d1 00 a8 3e be de 37 3f
       0.7335381 -0.9217468 0.32813123 0.7182425
000240 d4 11 4a bf a1 8a 30 bf 51 25 04 bf cb 9b 43 bf
       -0.78933454 -0.6896153 -0.5161944 -0.76409596
000250 4f c7 31 3e ba 7b 1b 3f 90 d8 51 bf 73 33 85 3e
       0.17361186 0.60735667 -0.81971073 0.26015815
000260 a3 dc 44 3f 9f 03 3d bf ef 4e 49 bf 8f f8 1a bf
       0.76899165 -0.7383365 -0.7863607 -0.6053552
000270 c2 0c 31 bf af fc 8b bc 7d b6 01 3f 81 a1 5f bf
       -0.6916009 -0.017088262 0.5066908 -0.8735581
000280 e1 9b 60 3e d2 14 15 3f 93 cd 3d bf eb ef 46 bf
       0.21934463 0.58234894 -0.74141806 -0.77709836
000290 9a cb 01 bf 4c ce 4e bf ed 74 b0 3d 9f 63 33 3f
       -0.50701296 -0.80783534 0.08616052 0.70073885
0002a0 76 92 4f bf f5 da 05 3e 8f 3c 3b 3f a8 ab 2f bf
       -0.81082857 0.13071807 0.7313928 -0.686213
0002b0 0d dc 43 bf 58 2b 0e bf bc 02 3f bf a7 ca 8b 3d
       -0.76507646 -0.5553489 -0.7461355 0.06825762
0002c0 c8 91 0f 3f cc 33 53 bf 04 dc 1c 3e 54 fa 3c 3f
       0.5608182 -0.8250091 0.15318304 0.7381947
0002d0 c3 d7 40 bf 58 20 38 bf 93 36 01 bf 80 60 3f bf
       -0.75329226 -0.7192435 -0.504739 -0.7475662
0002e0 c6 15 a8 3e d8 d0 1f 3f f8 69 5d bf 97 d6 a2 3e
       0.32829112 0.62428045 -0.8648982 0.31804344
0002f0 5b de 32 3f d2 bb 41 bf ad 54 37 bf 19 95 0d bf
       0.6987054 -0.75677216 -0.7161358 -0.5530563
000300 48 4e 46 bf 7d 90 41 3d 26 68 16 3f 09 30 56 bf
       -0.774632 0.047256935 0.5875267 -0.83667046
000310 05 60 87 3e 16 fc 24 3f 3f 0a 24 bf a3 99 2e bf
       0.26440445 0.6444715 -0.64078134 -0.6820318
000320 74 e3 1c bf a8 17 3e bf 19 21 c2 bd 33 16 06 3f
       -0.61284566 -0.74254847 -0.09478969 0.52377623
000330 59 0f 65 bf db 05 68 3d ca c4 41 3f 59 12 2d bf
       -0.89476544 0.05664621 0.756909 -0.6760612
000340 e7 ad 42 bf ab 8c 10 bf 78 4f 37 bf 0a ea 26 3d
       -0.76046604 -0.5646464 -0.71605635 0.04075054
000350 27 ff fc 3e 4d 29 51 bf 10 bc 49 3e 7e 70 1d 3f
       0.49413416 -0.81703645 0.19700646 0.61499774
000360 14 73 3d bf 92 b5 52 bf 5a de 12 bf 52 75 3c bf
       -0.7400372 -0.82308304 -0.5737053 -0.73616517
000370 14 9e c8 3d f4 69 24 3f 94 bd 67 bf 42 4e 52 3e
       0.09795776 0.6422417 -0.9052365 0.20537665
000380 ed e7 26 3f 81 0c 3a bf bc e8 4a bf 4c f6 11 bf
       0.6519764 -0.7267533 -0.79261374 -0.57016444
000390 64 67 3f bf f2 54 d6 3d 94 b8 18 3f 79 e2 52 bf
       -0.74767137 0.10465421 0.59656644 -0.8237682
0003a0 18 99 d7 3d 3a ff 48 3f 87 30 43 bf 79 08 4b bf
       0.10527247 0.78514445 -0.7624592 -0.79309803
0003b0 03 b2 fe be 8b 71 39 bf f8 57 1b 3e a8 91 29 3f
       -0.49745187 -0.7243888 0.15170276 0.6623788
0003c0 4e ff 51 bf 4e e8 86 3e bc 84 2a 3f 03 07 32 bf
       -0.8203019 0.2634911 0.66608787 -0.6954195
0003d0 e9 4c 37 bf 13 50 04 bf 57 32 3a bf 77 86 ae bd
       -0.7160173 -0.51684684 -0.7273306 -0.08521741
0003e0 ef da 24 3f 11 9c 58 bf 90 75 bd 3d 45 bf 53 3f
       0.64396566 -0.8461314 0.09250939 0.8271373
0003f0 fc c6 4b bf e9 96 43 bf 49 93 ea be 5b c7 4a bf
       -0.796005 -0.76402146 -0.45815495 -0.7921044

dec.model.0.conv.bias f4 [32]
000000 43 00 09 3e f1 74 1e 3d 4e a2 15 3e c4 dd d0 3d
       0.13379006 0.038685743 0.14612696 0.101985484
000010 2c 5e f7 3d 81 ab dd 3d 64 72 49 3e 0f 9c 0f 3e
       0.12078509 0.108237274 0.19672543 0.14024375
000020 b3 19 b9 3d 30 44 80 3d 82 d4 2a 3e e6 c1 01 3d
       0.09038105 0.06263006 0.16682628 0.031679057
000030 34 23 94 3d 6b 53 0b 3e 6c 84 3e 3e 4f a6 13 3d
       0.07233277 0.1360604 0.18605202 0.036047276
000040 d3 3d 90 3d d1 7d f0 3d 3d bb bd 3d 87 8c 19 3e
       0.07043042 0.117427476 0.092642285 0.14995013
000050 68 b2 d8 3d 83 85 da 3d d2 07 73 3e b3 14 d7 3d
       0.10580903 0.106699966 0.23733452 0.10501995
000060 ad 0a df 3d 63 e8 ea 3d 17 34 7d 3d 90 ad 57 3e
       0.10890708 0.114701055 0.061817255 0.21062303
000070 a5 1e 93 3d 56 c4 48 3e 56 5f a5 3d 40 3a 3d 3e
       0.07183579 0.19606146 0.080748245 0.18479252
