prototype_slots_group_var2/pretrained_state/img_recon/states/01999.pth (torch_old, 636933 bytes, 59 tensors)

enc.model.0.conv.weight f4 [32, 3, 3, 3]
-0.16822547 -0.0016387684 0.24980569 -0.16661513 -0.15690282 0.14893217 -0.028576024 0.21076919
0.35470596 -0.064446725 -0.10173155 0.041925877 0.20242283 0.040736422 0.08971642 -0.0126591725
-0.01676563 0.025846893 0.27107924 0.0046566934 0.25095457 0.11532824 0.098710105 0.1957143
0.2810034 0.027530018 -0.03571056 0.09525968 -0.012414911 -0.1057042 -0.16569771 -0.08525656
0.037211534 0.14232102 0.19526815 -0.088398576 0.037326116 0.0027268901 0.16359454 -0.056615345
0.26246265 -0.09447618 0.19704537 0.05882239 0.19143648 0.15757476 0.21021277 0.056150988
-0.086654596 0.18361233 0.1794359 0.09299246 -0.03067362 0.28221372 0.07553406 0.010069102
-0.10345088 0.05526173 -0.1448102 0.044658884 -0.15883255 -0.04276517 -0.044776738 -0.04918717
-0.17221725 -0.18114465 -0.049604595 0.031467006 0.13477226 0.17868732 0.04887499 -0.17060542
-0.19126393 -0.077310465 -0.10525147 0.019533828 -0.064830765 -0.12238925 -0.15665208 0.046425432
0.1582195 -0.1675935 -0.2354587 0.14556654 -0.19503927 0.053734116 0.003102235 0.08131265
-0.1442263 0.06680937 0.17900404 0.17708832 -0.08182189 0.12415708 0.17247683 -0.091741174
0.16135676 0.12177039 0.02414672 0.03942429 0.12662737 -0.03352318 0.010493006 -0.047859754
0.07538232 0.012956937 0.046964467 0.3003016 0.17327942 0.14912151 0.14551094 -0.10605802
-0.15715596 -0.0037547399 -0.09839748 0.20405683 0.17748336 0.12553078 0.14424366 -0.00134614
0.079820074 0.09896496 0.13759027 0.14847103 0.28903896 0.03349916 0.1401103 0.067190446
-0.08940096 0.14247043 0.19847497 0.26401117 0.068874136 0.0018430296 -0.048142422 0.21103816
-0.072043486 -0.05965621 0.23562004 0.04697117 0.15410946 0.084509 -0.0047505023 0.07521929
0.120926596 0.0040627667 0.006504218 -0.038038656 -0.17126028 0.08662999 -0.025218543 -0.118195884
0.2103432 0.13818116 0.05306162 -0.067801654 0.017011497 0.16896446 -0.018611489 0.12712313
0.029140467 0.18809153 -0.13763711 0.0921843 -0.14743286 0.21381037 0.10859657 0.17919102
0.09230954 0.22765754 0.23710111 0.04916489 0.22264984 0.1219783 -0.08489241 0.15636918
0.119593784 0.18441977 0.12106129 0.09652116 -0.069641225 0.11433732 -0.01850509 0.11202191
0.23371041 0.20883116 0.06544245 0.014510683 -0.023838872 0.20138586 0.13490827 0.03521284
0.21706405 0.05253614 0.21324366 -0.10240738 -0.0026370836 0.21511784 0.24660215 0.10816102
0.018313905 -0.01918527 0.083267316 0.108018965 -0.08489516 0.15941606 0.19383854 0.20143355
0.03316299 -0.15250272 -0.0013033136 0.045042545 -0.021269288 0.19785179 -0.034725953 0.01907782
-0.14097738 0.014990577 -0.06266485 -0.10777756 0.15952113 0.09001935 -0.1400131 -0.16862261
0.14069073 0.10874834 0.08850308 0.16052043 0.08250701 0.18588056 0.13401568 0.19339527
-0.07075561 -0.09430102 -0.05593506 0.18081975 0.07966234 0.23617996 0.1900544 0.108261175
0.11837639 0.18349268 0.08810247 0.13082866 0.07304197 -0.17355694 0.10376166 0.1479359
-0.04300368 0.09008538 -0.06801899 0.08759214 -0.08371404 0.14174588 0.05451215 0.19786969
00000000: 4c43 2cbe f1cb d6ba 10cd 7f3e 289d 2abe
00000010: 22ab 20be ad81 183e 4418 eabc e1d3 573e
00000020: 059c b53e a5fc 83bd a258 d0bd 78ba 2b3d
00000030: ee47 4f3e 3cdb 263d 3ebd b73d 6b68 4fbc
00000040: 1358 89bc ddbc d33c e6ca 8a3e 2d97 983b
00000050: 1e7d 803e 3631 ec3d 8628 ca3d 5469 483e
00000060: addf 8f3e a286 e13c 3c45 12bd 8217 c33d
00000070: e967 4bbc 727b d8bd a9ac 29be fe9a aebd
00000080: 1f6b 183d 9abc 113e 60f4 473e 500a b5bd
00000090: 45e3 183d a0b5 323b 5485 273e 7ee5 67bd
000000a0: 8161 863e ba7c c1bd 43c6 493e bfef 703d
000000b0: ed07 443e 475b 213e 0442 573e 94fe 653d
000000c0: f777 b1bd df04 3c3e 0bbe 373e d572 be3d
000000d0: 3e47 fbbc 517e 903e 9ab1 9a3d e0f8 243c
000000e0: 0ede d3bd 205a 623d 2049 14be 3cec 363d
000000f0: 00a5 22be 882a 2fbd d067 37bd 7c78 49bd
00000100: b859 30be fc7d 39be 302e 4bbd 8ce3 003d
00000110: bd01 0a3e cff9 363e 2431 483d 30b3 2ebe
00000120: b1da 43be f354 9ebd 158e d7bd 6805 a03c
00000130: fec5 84bd 37a7 fabd 6769 20be 9828 3e3d
00000140: 4b04 223e a19d 2bbe 161c 71be 650f 153e
00000150: 60b8 47be 4e18 5c3d de4e 4b3b 3f87 a63d
00000160: 0fb0 13be 5ad3 883d d64c 373e a456 353e
00000170: 3c92 a7bd 1146 fe3d c49d 303e cce2 bbbd
00000180: b53a 253e c162 f93d 58cf c53c 5d7b 213d
00000190: 9baa 013e 9a4f 09bd dbea 2b3c 9708 44bd
000001a0: 0c62 9a3d 5549 543c d05d 403d 22c1 993e
000001b0: 2970 313e 4fb3 183e d200 153e f234 d9bd
000001c0: 7eed 20be 1512 76bb 9e84 c9bd 46f4 503e
000001d0: 33be 353e 248b 003e 9cb4 133e f770 b0ba
000001e0: b578 a33d 24ae ca3d 77e4 0c3e ca08 183e
000001f0: eafc 933e 6a36 093d 1379 0f3e 259b 893d
00000200: da17 b7bd c5e3 113e 063d 4b3e 792c 873e
00000210: e20d 8d3d d091 f13a fd30 45bd 631a 583e
00000220: 898b 93bd 125a 74bd 6146 713e d764 403d
00000230: dfce 1d3e 0e13 ad3d 1aaa 9bbb 920c 9a3d
00000240: 5da8 f73d f520 853b 5621 d53b 6cce 1bbd
00000250: db5e 2fbe 106b b13d 1e97 cebc af10 f2bd
00000260: 3564 573e 5d7f 0d3e 2457 593d 98db 8abd
00000270: b25b 8b3c 0505 2d3e 1f77 98bc 912c 023e
00000280: fdb7 ee3c 119b 403e bef0 0cbe 1fcb bc3d
00000290: a4f8 16be 1bf1 5a3e e167 de3d da7d 373e
000002a0: c90c bd3d 0f1f 693e a2ca 723e 2061 493d
000002b0: 52fe 633e c2cf f93d 12dc adbd 3e1f 203e
000002c0: 96ed f43d 89d8 3c3e fbee f73d e3ac c53d
000002d0: 0fa0 8ebd af29 ea3d fd97 97bc be6b e53d
000002e0: c851 6f3e d6d7 553e b106 863d 37be 6d3c
000002f0: bd49 c3bc 1838 4e3e 6525 0a3e 573b 103d
00000300: 0a46 5e3e 2330 573d 8c5c 5a3e f6ba d1bd
00000310: ecd2 2cbb da47 5c3e 4685 7c3e 8683 dd3d
00000320: 0b07 963c 6d2a 9dbc 0e88 aa3d 0c39 dd3d
00000330: 83dd adbd f73d 233e 9c7d 463e 9944 4e3e
00000340: ead5 073d ac29 1cbe f3d3 aaba 887e 383d
00000350: ee3c aebc a999 4a3e cd3c 0ebd 1749 9c3c
00000360: 605c 10be 099b 753c 6e56 80bd 7bba dcbd
00000370: 8259 233e 115c b83d 985f 0fbe 68ab 2cbe
00000380: 3b11 103e 73b7 de3d 1a41 b53d 785f 243e
00000390: 6ff9 a83d 7957 3e3e 683b 093e 6909 463e
000003a0: 51e8 90bd e520 c1bd 291c 65bd d028 393e
000003b0: 0226 a33d 29d9 713e 9f9d 423e 09b8 dd3d
000003c0: 526f f23d 81e5 3b3e 116f b43d f3f7 053e
000003d0: 0797 953d e9b8 31be fe80 d43d 827c 173e
000003e0: a024 30bd af7e b83d 8a4d 8bbd 8263 b33d
000003f0: 4472 abbd d525 113e 2248 5f3d 5a9e 4a3e

enc.model.0.conv.bias f4 [32]
0.1223877 0.21497793 -0.007456079 -0.049010187 0.09489368 0.10730514 0.016846666 0.11223984
0.2240189 -0.033767033 0.22508986 0.20994346 -0.07699236 -0.12207731 0.09184949 0.14964007
0.10610551 -0.012417909 0.119958304 -0.03366754 0.0041638142 0.17346747 -0.075087085 -0.005344663
0.13556315 0.13564245 0.23487118 -0.1021793 0.20951883 0.018778618 0.24473266 0.272218
00000000: 67a6 fa3d 2d23 5c3e 2052 f4bb e8be 48bd
00000010: 9e57 c23d ccc2 db3d 0502 8a3c 00de e53d
00000020: 3665 653e 4d4f 0abd f57d 663e 6bfb 563e
00000030: 2cae 9dbd ab03 fabd 961b bc3d 3f3b 193e
00000040: d84d d93d 7c74 4bbc b3ac f53d f9e6 09bd
00000050: 9b70 883b 75a1 313e 42c7 99bd 4822 afbb
00000060: 11d1 0a3e dbe5 0a3e 1282 703e 6143 d1bd
00000070: 1b8c 563e 9ed5 993c 339b 7a3e 2860 8b3e

enc.model.1.conv.weight f4 [32, 32, 3, 3]
0.08281174 0.08379989 0.11367687 0.099132195 0.060827084 0.006252791 0.08058546 0.086489044
0.043230742 0.0121736955 0.03754677 0.015341971 0.021510841 0.09067294 0.05581222 0.07990421
0.08366048 0.057856232 -0.019339483 -0.04419237 -0.007852245 0.051933963 -0.002851367 -0.01153034
-0.016533788 0.036294412 -0.020446308 0.096585825 0.050004054 0.0529857 0.11476786 0.085921876
0.0828473 0.06314292 0.118841186 0.1001543 0.123554416 0.03585451 0.11264205 0.0064218235
0.084473945 0.038085993 0.09789029 0.111521535 0.069316804 0.02197486 0.0723979 0.022100063
0.080736734 0.07231717 0.076935925 0.07927946 0.02082767 0.0948783 0.03518476 0.02656067
0.07641316 0.024624672 0.060158946 0.05255281 0.08182871 0.10069084 0.09453942 0.11247593
0.024136381 0.11022168 0.04764451 0.08294915 0.008295513 0.047961336 0.06331077 0.022984782
0.067120075 0.017298864 0.084259965 0.021556474 0.040215157 0.09880446 0.106548265 0.093576215
0.076636985 0.11888668 0.046549913 0.14404908 0.11814699 0.06815732 0.06720098 0.13993287
0.12037266 0.09103757 0.08046824 0.03335121 0.086758345 0.04206664 0.091390334 0.013403203
0.08302845 -0.0058156475 0.061774332 0.10908907 0.021335403 0.011877044 0.09169132 -0.05895172
0.02433485 0.015582227 -0.016413005 -0.026888793 0.01021375 0.07193619 0.10723892 0.119182415
0.07344771 0.06491825 0.0940516 0.04329359 0.119154416 0.058023255 0.020985883 -0.017174693
0.008429031 0.05242829 -0.046451822 0.07979168 -0.03649036 -0.047750555 0.056878664 0.036103997
0.043639183 0.06321247 0.10989824 0.045597076 0.102414235 0.07467924 0.08372232 0.0062812953
0.026549296 0.019810732 0.07386205 0.020025348 -0.02319649 0.024541948 -0.027132964 0.038354747
0.041000117 0.019107906 0.04416903 0.041972432 0.06339361 0.09297833 0.07261651 0.03985954
0.035392303 0.092279315 0.09937399 0.059555177 0.005206445 0.04016348 0.022844713 0.099107325
0.097319044 0.077338904 0.09042413 0.06936306 0.05228342 0.058300342 0.117862895 0.11340924
0.012772787 0.009020984 0.08931552 0.058114097 0.066659726 0.06533327 0.06907369 -0.027934307
0.02357771 -0.03810665 -0.049116805 -0.008736162 0.08182396 0.109907016 0.040396154 0.039242025
0.018615335 0.08306053 0.102051266 0.042392172 0.04905962 0.06552327 0.10755123 0.05149987
0.06248889 0.082343854 0.0056470525 0.088480376 0.0077117817 0.10410788 0.013669152 0.099051714
0.040355984 0.05717543 0.05874709 0.115358375 0.024703467 0.07171522 0.06302259 0.06855437
0.117366575 0.073050395 0.012034198 0.08806543 0.050184976 0.0018497795 0.10966821 0.10008076
0.0021016875 0.025537515 0.12811041 0.057238963 0.12490922 0.14870666 0.13650155 0.13464944
0.14643516 0.07037627 0.09527005 0.06147987 0.06543118 0.03544618 0.04855609 0.11426024
0.063965194 0.11043676 0.08509345 0.04148335 -0.010429263 0.049920455 -0.04823834 -0.029468639
0.04380511 0.03236343 -0.022439823 -0.009424105 0.0829694 0.044751547 0.090370856 -0.0013560636
0.013872389 -0.021154253 -0.02564917 0.08486843 0.06607232 0.10453791 0.01870658 0.09314353
00000000: 3499 a93d 479f ab3d 6bcf e83d d205 cb3d
00000010: d225 793d 36e4 cc3b fd09 a53d 2b21 b13d
00000020: b812 313d 2e74 473c a4ca 193d e45c 7b3c
00000030: 8137 b03c bcb2 b93d 5b9b 643d d2a4 a33d
00000040: 3056 ab3d a8fa 6c3d d66d 9ebc 0f03 35bd
00000050: b4a6 00bc b5b8 543d 00de 3abb c0e9 3cbc
00000060: de71 87bc 73a9 143d 047f a7bc cace c53d
00000070: 0dd1 4c3d 8907 593d 690b eb3d cff7 af3d
00000080: d8ab a93d 1351 813d 0263 f33d b31d cd3d
00000090: 190a fd3d 2edc 123d e0b0 e63d 296e d23b
000000a0: ad00 ad3d 0f00 1c3d b47a c83d 6765 e43d
000000b0: f8f5 8d3d 9f04 b43c 5a45 943d 310b b53c
000000c0: 4d59 a53d 061b 943d 9590 9d3d 455d a23d
000000d0: ca9e aa3c 8e4f c23d e51d 103d c395 d93c
000000e0: 817e 9c3d aeb9 c93c 3a69 763d 9e41 573d
000000f0: d095 a73d 0037 ce3d e29d c13d c859 e63d
00000100: a9b9 c53c e7bb e13d e426 433d 3ee1 a93d
00000110: e7e9 073c 1b73 443d 14a9 813d 954a bc3c
00000120: 4076 893d 59b6 8d3c 7d90 ac3d 3497 b03c
00000130: a6b8 243d fe59 ca3d fa35 da3d e3a4 bf3d
00000140: daf3 9c3d dc7a f33d 1fab 3e3d 9a81 133e
00000150: 0df7 f13d 1196 8b3d aba0 893d 904a 0f3e
00000160: f185 f63d e871 ba3d 88cc a43d 479b 083d
00000170: 5cae b13d 124e 2c3d db2a bb3d 1c99 5b3c
00000180: d20a aa3d 3091 bebb 1507 7d3d 176a df3d
00000190: 95c7 ae3c ef97 423c a9c8 bb3d 5c77 71bd
000001a0: e159 c73c 994c 7f3c 9174 86bc e345 dcbc
000001b0: 9357 273c 4853 933d 14a0 db3d e915 f43d
000001c0: c16b 963d dcf3 843d 209e c03d 9f54 313d
000001d0: 3b07 f43d cba9 6d3d 96ea ab3c f1b1 8cbc
000001e0: eb19 0a3c 0cbf 563d 4444 3ebd d269 a33d
000001f0: ea76 15bd 1696 43bd 9af9 683d c9e1 133d
00000200: 00bf 323d 8a75 813d 5412 e13d 00c4 3a3d
00000210: 8ebe d13d 6ef1 983d 9c76 ab3d 53d3 cd3b
00000220: e97d d93c 1e4a a23c fd44 973d 330c a43c
00000230: 9106 bebc 320c c93c f345 debc de19 1d3d
00000240: bdef 273d 2f88 9c3c 96ea 343d 49eb 2b3d
00000250: 82d4 813d 6c6b be3d f7b7 943d c243 233d
00000260: 85f7 103d f0fc bc3d 9784 cb3d 21f0 733d
00000270: d49a aa3b 7682 243d d624 bb3c c8f8 ca3d
00000280: 354f c73d dc63 9e3d 4930 b93d 380e 8e3d
00000290: 2427 563d 57cc 6e3d 1a62 f13d 1b43 e83d
000002a0: f444 513c c0cc 133c 0eeb b63d 0c09 6e3d
000002b0: e584 883d 73cd 853d 8276 8d3d 7dd6 e4bc
000002c0: 0b26 c13c b815 1cbd b42e 49bd 1f22 0fbc
000002d0: 5293 a73d ee16 e13d 7076 253d 3fbc 203d
000002e0: 307f 983c a41b aa3d 4100 d13d 6aa3 2d3d
000002f0: bdf2 483d 1031 863d d243 dc3d 87f1 523d
00000300: 5af4 7f3d e5a3 a83d e90a b93b 3335 b53d
00000310: 1db3 fc3b 8336 d53d 94f4 5f3c a0db ca3d
00000320: 514c 253d c930 6a3d caa0 703d 0341 ec3d
00000330: ed5e ca3c 6edf 923d fd11 813d 3c66 8c3d
00000340: e35d f03d 729b 953d 162b 453c a65b b43d
00000350: c38e 4d3d 4d74 f23a ba99 e03d 24f7 cc3d
00000360: 77bc 093b 0d34 d13c 602f 033e 6773 6a3d
00000370: 68d0 ff3d 8f46 183e 10c7 0b3e 8be1 093e
00000380: 19f3 153e 6f21 903d f21c c33d 51d2 7b3d
00000390: c800 863d 0330 113d c0e2 463d 4601 ea3d
000003a0: 2f00 833d ab2c e23d 7a45 ae3d 72ea 293d
000003b0: 80df 2abc 6479 4c3d 9195 45bd 3768 f1bc
000003c0: fd6c 333d 848f 043d b8d3 b7bc 9067 1abc
000003d0: dceb a93d 664d 373d 5b14 b93d f2bd b1ba
000003e0: 0449 633c af4b adbc 351e d2bc 80cf ad3d
000003f0: ed50 873d f917 d63d 8b3e 993c 09c2 be3d

enc.model.1.conv.bias f4 [32]
0.0580477 0.110188395 -0.018259557 0.030506618 0.04929823 0.045912553 0.05578842 0.009800899
0.0012192363 -0.0048130825 -0.030396663 -0.03250149 0.08503232 0.06870968 -0.004573732 0.091122165
0.079479516 0.09074975 0.035920467 -0.04406993 -0.011185051 0.08481004 0.028763486 0.030227937
0.019487694 0.106871404 0.003680191 0.047223303 -0.012231463 0.044862397 -0.04890524 0.049169045
00000000: 6dc3 6d3d 74aa e13d 1195 95bc 04e9 f93c
00000010: f1ec 493d cd0e 3c3d 6682 643d f393 203c
00000020: c8ce 9f3a 10b7 9dbb 6c02 f9bc 4820 05bd
00000030: 6d25 ae3d a9b7 8c3d 3fdf 95bb 429e ba3d
00000040: 28c6 a23d 01db b93d 5721 133d ac82 34bd
00000050: 8141 37bc e3b0 ad3d 67a1 eb3c 94a0 f73c
00000060: a8a4 9f3c 65df da3d 5c2f 713b 396d 413d
00000070: 7966 48bc a2c1 373d dc50 48bd 7b65 493d

enc.model.2.conv.weight f4 [32, 32, 3, 3]
-0.044145774 0.023407398 0.07609055 -0.004431709 0.04364897 0.066207066 0.0056036855 0.078573786
0.035524882 -0.022413533 -0.09607828 -0.09040766 -0.08176139 -0.027399115 -0.08738641 -0.02161801
-0.009924063 -0.052583314 0.07887776 0.088581845 0.07929133 0.04274741 0.034272797 0.04178484
0.122551925 0.06395421 0.08879396 0.037669156 0.06953663 0.053671934 0.045423307 0.0029185612
0.03832698 0.10014717 0.068909556 0.13039209 0.061946712 0.030566582 0.02867751 0.043580096
0.060267113 0.049196042 0.018068256 0.06472269 0.07995235 -0.06685909 -0.033073474 0.0048852707
-0.03335208 0.061915834 0.0733313 0.042016175 0.047225464 0.06851603 0.053410575 -0.036884755
0.053421754 -0.021213492 -0.030303635 0.01804465 -0.036252614 -0.047579642 -0.011321432 0.047594626
0.026170092 0.061848648 0.047394566 0.020044172 0.0393083 0.10010528 0.10560029 0.02530185
0.04008129 0.08769666 0.119053625 0.05138857 0.08870755 0.15172683 0.083766535 0.13599122
0.17430979 0.04829746 -0.0038956553 0.055127006 -0.008417223 -0.02664418 -0.024539806 0.04253463
-0.03358394 -0.027494736 -0.004912439 0.075044945 0.10270698 0.025040446 0.027309999 0.11166569
0.071968935 0.045934834 0.10171834 0.031921763 -0.04086895 0.00063496456 -0.01972951 0.02484167
0.034551162 0.043688927 0.05619547 -0.054684736 0.015445842 -0.019690229 -0.0008386841 0.03796368
0.006903981 -0.013330818 -0.01286861 -0.007987826 -0.009692646 -0.042577665 0.050649874 0.09611833
0.016091052 0.045281176 0.009390246 0.032946188 0.09321745 0.05191989 0.03503435 0.02678734
0.051782094 0.005179538 0.09516579 0.065488614 0.08773726 0.10808878 0.12757115 0.028053239
-0.009041652 0.05808422 -0.028740492 -0.034450732 0.08470758 0.048280273 0.051130824 0.082936265
-0.033604264 0.0011525339 -0.010012041 0.025127089 0.06746995 0.10071866 -0.008819067 0.036272183
0.09100015 0.014582807 0.06832384 0.031019017 -0.042866807 -0.03326829 0.0908546 -0.005299611
0.027114805 0.10737974 -0.0025988526 0.008645905 0.076898366 0.028502315 0.06362817 0.09839299
0.106584206 0.054740664 0.14197369 -0.02869713 -0.04354459 -0.019780241 -0.016159445 -0.036840826
-0.006808661 0.027804453 -0.02145791 0.011322368 0.024477517 0.03967151 0.13090837 0.09805788
0.03677738 0.15672012 0.15038146 0.10921958 0.17704552 -0.059268847 0.009578064 0.04034815
-0.034894492 0.010544117 0.0052199056 0.02146724 0.06734307 0.08687935 0.007090118 0.052689675
-0.009603649 0.034206387 0.03271157 -0.0061556473 -0.026952974 0.028843988 0.02763654 -0.009689357
0.04640988 0.035869148 0.03239688 0.044204883 0.052933875 0.013843406 0.06056998 0.036636148
0.09854069 0.050411213 0.076454684 0.026054882 0.09984242 0.06418694 0.04238852 0.11188282
0.12920609 0.0076561174 -0.023484446 0.023285255 0.03848306 0.015652243 0.0982992 0.022305228
0.049418796 0.084910884 -0.029088855 0.011370345 0.0392013 -0.075183734 0.08511515 0.013249177
0.06468569 0.10266315 0.025553603 -0.039591603 0.031907465 0.017402554 -0.008527616 0.05724391
-0.023391776 0.023832045 -0.047344625 -0.038095944 0.069087684 0.08457647 0.09762212 0.012398007
00000000: 33d2 34bd dfc0 bf3c 5dd5 9b3d df37 91bb
00000010: 43c9 323d 9297 873d 1f9f b73b 4beb a03d
00000020: 8a82 113d 969c b7bc b0c4 c4bd a727 b9bd
00000030: 8472 a7bd 1c74 e0bc a5f7 b2bd 4118 b1bc
00000040: 8a98 22bc 9a61 57bd aa8a a13d 666a b53d
00000050: 7e63 a23d e817 2f3d a261 0c3d 9526 2b3d
00000060: 81fc fa3d 6dfa 823d 9cd9 b53d f94a 1a3d
00000070: 3869 8e3d 1ad7 5b3d ca0d 3a3d 5545 3f3b
00000080: c0fc 1c3d f619 cd3d 7420 8d3d 8185 053e
00000090: d6bb 7d3d c566 fa3c 19ed ea3c 0b81 323d
000000a0: a6da 763d ca81 493d e103 943c 548d 843d
000000b0: 0fbe a33d 6bed 88bd 0d78 07bd 9f14 a03b
000000c0: 319c 08bd 759b 7d3d b82e 963d 2719 2c3d
000000d0: 7d6f 413d 2252 8c3d 0cc5 5a3d 7814 17bd
000000e0: c5d0 5a3d ebc7 adbc 543f f8bc 60d2 933c
000000f0: 9f7d 14bd dfe2 42bd 877d 39bc 95f2 423d
00000100: a962 d63c 0255 7d3d ce20 423d ad33 a43c
00000110: bd01 213d ff03 cd3d f744 d83d d345 cf3c
00000120: 472c 243d 4e9a b33d 63d2 f33d d27c 523d
00000130: 4eac b53d 475e 1b3e ca8d ab3d 4841 0b3e
00000140: 447e 323e 8fd3 453d 404e 7fbb dbcc 613d
00000150: 64e8 09bc e544 dabc b407 c9bc cb38 2e3d
00000160: 508f 09bd a43c e1bc 86f8 a0bb 2ab1 993d
00000170: 0a58 d23d 9f21 cd3c 38b9 df3c fbb0 e43d
00000180: 7364 933d 2a26 3c3d b451 d03d 65c0 023d
00000190: 3366 27bd c073 263a c89f a1bc c280 cb3c
000001a0: 8585 0d3d 29f3 323d 392d 663d 1afd 5fbd
000001b0: 8f10 7d3c 674d a1bc 23db 5bba ce7f 1b3d
000001c0: ca3a e23b 8169 5abc ddd6 52bc 5fdf 02bc
000001d0: e7cd 1ebc eb65 2ebd 3e76 4f3d b0d9 c43d
000001e0: 62d1 833c c178 393d 8cd9 193c 95f2 063d
000001f0: cae8 be3d f3a9 543d 2e80 0f3d 2071 db3c
00000200: 7619 543d 1db9 a93b 48e6 c23d e51e 863d
00000210: 98af b33d a65d dd3d 03a2 023e e8cf e53c
00000220: 7023 14bc b8e9 6d3d 2e71 ebbc 361c 0dbd
00000230: 2b7b ad3d 89c1 453d 8e6e 513d 7dda a93d
00000240: a0a4 09bd 9f10 973a 8b09 24bc 53d7 cd3c
00000250: af2d 8a3d 9645 ce3d d97d 10bc 2492 143d
00000260: 495e ba3d baec 6e3c 5fed 8b3d 981b fe3c
00000270: 1b95 2fbd 5544 08bd fa11 ba3d 5ca8 adbb
00000280: de1f de3c e9e9 db3d 8351 2abb 8ea7 0d3c
00000290: e47c 9d3d b07d e93c 7c4f 823d 4482 c93d
000002a0: d248 da3d bf37 603d 8d61 113e 3e16 ebbc
000002b0: d05b 32bd 2c0a a2bc d060 84bc 68e6 16bd
000002c0: 301b dfbb 2ac6 e33c 80c8 afbc 7481 393c
000002d0: 1385 c83c 987e 223d d80c 063e 92d2 c83d
000002e0: e1a3 163d 3d7b 203e 99fd 193e 84ae df3d
000002f0: 6c4b 353e e4c3 72bd 50ed 1c3c 1a44 253d
00000300: 87ed 0ebd 3bc1 2c3c be0b ab3b 11dc af3c
00000310: 2aeb 893d cded b13d 3854 e83b 21d1 573d
00000320: a058 1dbc ff1b 0c3d 91fc 053d 50b5 c9bb
00000330: 7ccc dcbc 3a4a ec3c 0666 e23c 1cc0 1ebc
00000340: 4918 3e3d 87eb 123d 97b2 043d 2e10 353d
00000350: 31d1 583d 74cf 623c 3a18 783d c90f 163d
00000360: b4cf c93d fd7b 4e3d 4694 9c3d 0c71 d53c
00000370: 2f7a cc3d 7174 833d 969f 2d3d d222 e53d
00000380: 9a4e 043e 2be0 fa3b 7462 c0bc b8c0 be3c
00000390: 6aa0 1d3d 2239 803c 1751 c93d 74b9 b63c
000003a0: 5d6b 4a3d c2e5 ad3d c04b eebc af4a 3a3c
000003b0: 8b91 203d eef9 99bd da50 ae3d 1313 593c
000003c0: ee79 843d 0f41 d23d ca55 d13c ce2a 22bd
000003d0: 67b1 023d cd8f 8e3c 6ab7 0bbc 9778 6a3d
000003e0: 1ca0 bfbc 6c3b c33c 70ec 41bd 7e0a 1cbd
000003f0: d87d 8d3d 6e36 ad3d 1bee c73d 0321 4b3c

enc.model.2.conv.bias f4 [32]
-0.0026311353 0.058347497 -0.020926453 0.036217544 -0.05076704 0.043786023 0.08355912 0.04081527
-0.0041258656 0.005081467 0.0070444993 0.0015449142 0.037954714 -0.022020128 -0.048446495 -0.0033124173
0.00017233803 0.04024031 0.033544715 0.007273126 -0.0038489613 0.050657477 0.026308725 0.021791484
-0.0133222975 0.020392686 -0.010237386 -0.05811162 -0.057045706 0.00048839214 0.0066887657 0.019197438
00000000: 206f 2cbb c9fd 6e3d f46d abbc d958 143d
00000010: 1af1 4fbd f958 333d 0b21 ab3d ea2d 273d
00000020: 4532 87bb 6f82 a63b 8bd5 e63b b87e ca3a
00000030: 6776 1b3d 8e63 b4bc d56f 46bd 2415 59bb
00000040: a3b5 3439 06d3 243d 2f66 093d 6753 ee3b
00000050: db3e 7cbb 377e 4f3d 6585 d73c 0e84 b23c
00000060: c445 5abc 900e a73c b6ba 27bc 7306 6ebd
00000070: c2a8 69bd 7107 003a 6f2d db3b f243 9d3c

enc.model.3.conv.weight f4 [10, 32, 3, 3]
-0.07219807 -0.12354315 -0.0033351656 -0.06789248 -0.1464545 -0.08670749 -0.049206927 -0.031446483
-0.029012414 -0.07640443 -0.030117877 -0.06805901 -0.03683303 -0.09176337 -0.14383803 0.054214966
-0.003825797 -0.080294535 -0.032201614 -0.081682734 -0.06654532 -0.015629789 -0.114378095 -0.027090507
-0.011510564 -0.026620947 -0.050318602 -0.010751162 -0.061252262 -0.07531597 -0.027747706 -0.11369105
-0.043190546 0.027466223 -0.098648004 -0.0004914559 -0.12828048 -0.1641881 -0.030466208 -0.16872007
-0.08730141 0.028535908 0.034112107 -0.005966761 0.098757945 -0.06572133 0.0011070508 -0.066433035
-0.026060231 -0.08705137 -0.11088217 -0.024368115 -0.11373099 -0.07409159 0.10087226 0.0500849
0.08964024 0.03907708 0.06625983 0.017966278 -0.008286403 0.0014364938 -0.006971941 0.04157331
0.014508864 0.17591274 0.018100142 -0.023673365 0.12660447 0.15258493 0.12205004 0.102403365
-0.018056655 -0.10877754 -0.057449482 -0.044765625 -0.11978527 -0.17364681 -0.083137974 -0.07753532
-0.10620272 0.06906467 0.117113926 0.055281736 0.02000193 -0.029889772 -0.046027023 0.03713571
0.018127322 -0.08897506 -0.091910996 -0.12008346 0.017510843 -0.091006726 -0.1363717 -0.06385722
0.04854873 0.031570334 -0.021270016 -0.0849149 -0.06502637 -0.0015412638 -0.0747009 -0.1244783
0.016582076 0.013278699 -0.04149948 0.082818516 0.021005569 -0.01295658 0.071009085 -0.035836753
-0.07304901 -0.09078195 0.00025058383 -0.016820736 -0.09988266 -0.0895943 -0.024905015 -0.02652897
-0.012271528 -0.1328169 -0.14200102 -0.0440197 -0.061272908 -0.044103034 -0.046914086 -0.033680443
-0.0043733455 -0.056400303 -0.124731995 -0.11597166 -0.036097627 0.025582843 -0.037072424 -0.056937948
-0.07520011 0.040248208 -0.08709389 -0.07793607 -0.12255681 -0.06808533 -0.10358169 -0.05359265
-0.045598183 -0.10676852 -0.076236635 -0.0010738021 -0.11493971 -0.10292704 0.030749667 -0.056751687
-0.09311004 -0.10769725 -0.046006285 -0.02484256 -0.07521215 -0.04322801 -0.0459543 -0.010058544
-0.033389967 -0.051517855 0.09121612 0.045562603 0.033142034 0.046909418 0.02456487 0.011825609
0.08779663 -0.013640771 -0.08455438 0.043734074 0.040088147 0.07830169 0.09403654 -0.00082597975
-0.050802886 0.08518047 0.010719897 -0.026342295 0.006019074 -0.046216633 -0.01586572 -0.12382117
-0.1562173 -0.046979103 0.015912177 -0.10570818 0.0075439163 -0.058140296 -0.06057057 -0.02988438
-0.039623305 -0.14590813 0.02138685 -0.03304764 0.05649692 0.10817284 -0.11960355 -0.10277869
-0.025498409 -0.12764798 -0.19172579 -0.11919273 -0.0021891578 0.011735649 -0.00372713 -0.11742714
-0.033233263 -0.021764083 -0.0691369 -0.10886689 -0.049829636 0.031272497 -0.01718265 -0.0077263694
-0.09620755 -0.06745344 -0.060632266 -0.12213709 -0.14327896 -0.11012785 0.0045909565 -0.06247618
-0.0056602736 -0.10062837 -0.06718624 -0.030504989 -0.13692766 -0.1909189 -0.02208751 0.11769585
0.048323706 0.044229954 -0.005600353 -0.030730419 -0.041239444 -0.105854094 -0.08951624 -0.10515006
0.022988912 -0.026406534 -0.03195931 -0.04803614 0.010430526 0.043806758 0.0015299805 -0.015154723
-0.050491363 0.04840452 0.0429626 0.015968625 -0.100042954 -0.12671103 0.05416035 -0.068899326
00000000: 95dc 93bd 3104 fdbd cb92 5abb 360b 8bbd
00000010: 2bf8 15be b293 b1bd 348d 49bd 07ce 00bd
00000020: 71ab edbc ed79 9cbd c4b9 f6bc 8662 8bbd
00000030: 3bde 16bd 6fee bbbd 474a 13be 8310 5e3d
00000040: 39ba 7abb 7671 a4bd d7e5 03bd 4749 a7bd
00000050: ea48 88bd 0b0a 80bc 103f eabd e9ec ddbc
00000060: ce96 3cbc 2c14 dabc e11a 4ebd a425 30bc
00000070: a7e3 7abd 423f 9abd 284f e3bc dad6 e8bd
00000080: 92e8 30bd d800 e13c f707 cabd 0cd5 00ba
00000090: f55b 03be ed20 28be 4594 f9bc f4c4 2cbe
000000a0: 15cb b2bd 23c4 e93c 23b9 0b3d d284 c3bb
000000b0: 9b41 ca3d e898 86bd 761a 913a 0b0e 88bd
000000c0: 447c d5bc fd47 b2bd 3116 e3bd a49f c7bc
000000d0: cbeb e8bd 55bd 97bd 1e96 ce3d d325 4d3d
000000e0: 4d95 b73d 4a0f 203d 3cb3 873d 042e 933c
000000f0: b1c3 07bc bc48 bc3a e174 e4bb c648 2a3d
00000100: 96b6 6d3c 7822 343e c046 943c a5ee c1bc
00000110: 9aa4 013e 393f 1c3e 5ff5 f93d dbb8 d13d
00000120: 8deb 93bc c2c6 debd 2650 6bbd 295c 37bd
00000130: fb51 f5bd 78d0 31be 3e44 aabd d6ca 9ebd
00000140: d080 d9bd c771 8d3d 6dd9 ef3d 1a6f 623d
00000150: 16db a33c 65db f4bc d586 3cbd 9d1b 183d
00000160: c07f 943c 8e38 b6bd d53b bcbd 51ee f5bd
00000170: e672 8f3c bc61 babd 06a5 0bbe 93c7 82bd
00000180: 08db 463d e54f 013d 753e aebc dde7 adbd
00000190: 8c2c 85bd 3b04 caba c9fc 98bd 7bee febd
000001a0: 22d7 873c e68e 593c 5cfb 29bd c19c a93d
000001b0: df13 ac3c d647 54bc 366d 913d 8fc9 12bd
000001c0: b89a 95bd e3eb b9bd cb60 8339 a4cb 89bc
000001d0: 488f ccbd 377d b7bd 9a05 ccbc 4853 d9bc
000001e0: 850e 49bc 2701 08be b768 11be 004e 34bd
000001f0: 4df9 7abd 62a5 34bd fc28 40bd 81f4 09bd
00000200: 484e 8fbb 0104 67bd 7d73 ffbd 8d82 edbd
00000210: 1bdb 13bd 1c93 d13c 41d9 17bd c437 69bd
00000220: 8402 9abd 4edb 243d 485e b2bd f29c 9fbd
00000230: 11ff fabd 5270 8bbd a322 d4bd f783 5bbd
00000240: 29c5 3abd 74a9 dabd f421 9cbd d2be 8cba
00000250: 8365 ebbd 69cb d2bd bae6 fb3c 7574 68bd
00000260: 7ab0 bebd 6090 dcbd 1671 3cbd a082 cbbc
00000270: d408 9abd db0f 31bd 933a 3cbd 97cc 24bc
00000280: ebc3 08bd 6304 53bd 84cf ba3d da9f 3a3d
00000290: f1bf 073d 1724 403d 443c c93c 33c0 413c
000002a0: b8ce b33d 8a7d 5fbc d92a adbd 8022 333d
000002b0: 7833 243d a35c a03d 3b96 c03d 9086 58ba
000002c0: b016 50bd 1973 ae3d 82a2 2f3c cccb d7bc
000002d0: a73b c53b a74d 3dbd d4f8 81bc f495 fdbd
000002e0: 6ef7 1fbe 296d 40bd 415a 823c 887d d8bd
000002f0: f532 f73b 8524 6ebd d918 78bd 16d0 f4bc
00000300: 0c4c 22bd f168 15be 7a33 af3c f65c 07bd
00000310: 5069 673d b989 dd3d b5f2 f4bd a27d d2bd
00000320: 0ae2 d0bc 27b6 02be c453 44be 511b f4bd
00000330: f977 0fbb e146 403c dd42 74bb a47d f0bd
00000340: 9a1f 08bd 974a b2bc a697 8dbd 9bf5 debd
00000350: 291a 4cbd 9717 003d a1c2 8cbc 7c2d fdbb
00000360: 7708 c5bd 0725 8abd 8a59 78bd 0323 fabd
00000370: b8b7 12be b68a e1bd bc6f 963b 06e7 7fbd
00000380: d179 b9bb 3f16 cebd f098 89bd 99e5 f9bc
00000390: c436 0cbe 3e80 43be def0 b4bc 860a f13d
000003a0: 14ef 453d 782a 353d 2a83 b7bb 5cbe fbbc
000003b0: b1ea 28bd 08ca d8bd 4a54 b7bd ea58 d7bd
000003c0: 3e53 bc3c 8452 d8bc c4e7 02bd 8bc1 44bd
000003d0: cce4 2a3c b76e 333d a089 c83a 844b 78bc
000003e0: 08d0 4ebd d143 463d 8df9 2f3d a2d0 823c
000003f0: 52e3 ccbd 89c0 01be 3ed7 5d3d 171b 8dbd

enc.model.3.conv.bias f4 [10]
-0.026971659 -0.02660432 -0.036623087 -0.0056937216 -0.01381662 0.0031559484 -0.069425076 0.07233079
0.002107115 -0.028392924
00000000: abf3 dcbc 4ef1 d9bc 1702 16bd 6692 babb
00000010: 1b5f 62bc 07d4 4e3b bc2e 8ebd 2a22 943d
00000020: 8617 0a3b 4798 e8bc

proto_layer.proto_vecs.0 f4 [4, 40]
0.1202345 -0.32367256 -0.17527609 0.2210176 0.09964718 0.09545436 -0.08136378 0.098960675
0.34432542 -0.26380414 -0.016710505 -0.046481453 0.05464474 -0.08587919 -0.15489104 0.3122487
0.044746324 -0.18495043 0.24883342 -0.036498517 -0.115608715 -0.32454565 0.07946322 0.08394676
0.16669153 -0.047255628 -0.30085367 0.36521003 0.19839923 0.03367118 0.20989355 -0.294253
0.2472123 0.11939506 -0.10029968 -0.14409678 0.08171151 -0.2539149 -0.27290216 0.07313385
-0.35467163 -0.31023324 -0.0071838666 -0.03189705 0.28130066 0.3532654 0.06788391 0.1591186
0.13323846 0.28940842 -0.33894753 -0.3503016 0.1789739 0.115651526 0.12485498 -0.28738102
-0.07894571 -0.22438523 -0.27938485 0.0138095915 -0.009513895 -0.0073989527 0.20412913 0.14447644
-0.021358589 -0.17114814 -0.02787182 0.10368368 -0.03132176 0.16220504 -0.21539743 0.058861993
-0.077894405 0.23551925 -0.3160814 0.08243561 0.19112262 0.07493712 -0.14342934 0.013118242
-0.2841381 0.31594777 0.099682085 0.3086852 0.2377496 0.28934175 -0.24077055 0.3188207
0.35883376 -0.36883795 0.030201672 -0.026227769 0.32881966 0.08271267 0.027630892 -0.2634318
-0.24773714 0.21285409 -0.13898073 0.3618296 -0.088706255 0.009159086 -0.18537284 -0.22737882
-0.06352676 -0.20928448 0.15091759 0.1909041 -0.26488772 -0.052439645 0.2258316 0.34157947
-0.117140025 -0.3622592 -0.3237983 -0.023912575 0.358783 -0.0047674463 0.11184763 0.12654847
0.34256193 0.14601617 0.08864916 -0.328016 0.020609947 0.09503748 0.18128464 0.29336962
-0.17448457 -0.326112 -0.22608249 -0.020064527 -0.039525572 0.32000208 0.1475929 -0.15190728
-0.17745507 0.2012565 0.061033107 0.20068076 0.19121365 -0.072398916 -0.14201345 -0.018527403
0.103214286 0.07707289 0.057083193 0.2995226 0.21460903 -0.13890557 0.19122541 0.0630365
0.09003569 0.17213537 -0.091041 0.13693719 0.35202715 0.22670972 -0.23133208 0.0066268696
00000000: 813d f63d 69b8 a5be 937b 33be 7052 623e
00000010: d213 cc3d 937d c33d 0ea2 a6bd e5ab ca3d
00000020: 6c4b b03e 5611 87be 78e4 88bc 5663 3ebd
00000030: 2ad3 5f3d 6ee1 afbd c29b 1ebe 10df 9f3e
00000040: ec47 373d a563 3dbe 30ce 7e3e 787f 15bd
00000050: 43c4 ecbd d92a a6be 9dbd a23d 47ec ab3d
00000060: 2fb1 2a3e 1e8f 41bd 7e09 9abe cffc ba3e
00000070: 2b29 4b3e cbea 093d 56ee 563e 54a8 96be
00000080: 3925 7d3e 6685 f43d eb69 cdbd 1b8e 13be
00000090: 5d58 a73d 2201 82be d5b9 8bbe 33c7 953d
000000a0: 8597 b5be e4d6 9ebe a466 ebbb 7ba6 02bd
000000b0: a406 903e 34df b43e b806 8b3d fcef 223e
000000c0: aa6f 083e 572d 943e 888a adbe bb5a b3be
000000d0: ef44 373e b5da ec3d f8b3 ff3d 9b23 93be
000000e0: 4aae a1bd 3ec5 65be 880b 8fbe a041 623c
000000f0: 2be0 1bbc ea72 f2bb 3a07 513e a2f1 133e
00000100: 35f8 aebc 7541 2fbe 7153 e4bc 1c58 d43d
00000110: 3f4b 00bd 1419 263e 2591 5cbe 4619 713d
00000120: 1a87 9fbd f52b 713e 6cd5 a1be 00d4 a83d
00000130: a6b5 433e a278 993d 24df 12be e5ed 563c
00000140: 8d7a 91be e8c3 a13e 1f26 cc3d fd0b 9e3e
00000150: a274 733e 9a24 943e 8e8c 76be 773c a33e
00000160: 0fb9 b73e 54d8 bcbe 7f69 f73c 9edb d6bc
00000170: 0d5b a83e 4365 a93d 2e5a e23c 88e0 86be
00000180: ceae 7dbe 6cf6 593e f750 0ebe bb41 b93e
00000190: a0ab b5bd fe0f 163c 61d2 3dbe fed5 68be
000001a0: 511a 82bd ac4e 56be 248a 1a3e 5d7c 433e
000001b0: 5d9f 87be f4ca 56bd 6640 673e 81e3 ae3e
000001c0: 1ce7 efbd 0a7a b9be e4c8 a5be 4ee4 c3bc
000001d0: 68b2 b73e 3d38 9cbb 5f10 e53d ec95 013e
000001e0: 4764 af3e 4385 153e b18d b53d b7f1 a7be
000001f0: 31d6 a83c 03a3 c23d aea2 393e 8b34 963e
00000200: 15ac 32be 27f8 a6be 2b82 67be 5d5e a4bc
00000210: 91e5 21bd 50d7 a33e 9822 173e 958d 1bbe
00000220: c8b6 35be 2f16 4e3e dafd 793d 427f 4d3e
00000230: 83cd 433e e245 94bd f96b 11be c8c6 97bc
00000240: 0362 d33d 64d8 9d3d 11d0 693d 075b 993e
00000250: 78c2 5b3e 433d 0ebe 98d0 433e 4819 813d
00000260: a264 b83d 4144 303e b473 babd 4339 0c3e
00000270: e73c b43e 9826 683e 51e2 6cbe 3626 d93b

proto_layer.proto_vecs.1 f4 [2, 40]
-0.26593533 -0.053120885 0.35106814 0.045839828 0.25915655 0.13755548 0.17610228 0.33783758
0.35292822 -0.18043528 -0.25903147 -0.25209203 -0.36826506 0.19578375 0.19821511 -0.32395202
0.36641762 0.29822108 0.3332524 -0.06727429 0.255847 0.14331245 -0.25815347 -0.23364845
0.27532578 0.26772183 0.08928236 0.18412209 0.31842357 -0.19958957 0.22129044 -0.0141623225
-0.3348206 0.09430057 -0.3435649 -0.086564034 0.11209971 -0.18974338 -0.3589692 0.2916926
0.23775968 0.16679096 -0.012068844 -0.33288926 0.28702366 -0.25920644 -0.0010711146 -0.1971858
0.092400745 0.33664796 0.26766482 -0.2287758 -0.19759762 0.17007664 0.110343345 -0.13461888
0.052163653 0.13065304 -0.29287353 0.30479372 -0.21116072 0.0072254557 -0.31183863 -0.2614801
-0.34074336 -0.29053855 -0.30681926 0.036253665 0.071493864 0.1309497 -0.34142935 -0.08019457
-0.31583092 -0.07993579 0.31080905 0.19065921 -0.07953208 -0.281034 0.16429701 -0.061555915
00000000: ad28 88be 4995 59bd 34bf b33e 8bc2 3b3d
00000010: 2bb0 843e 58db 0c3e 2854 343e 0cf9 ac3e
00000020: 02b3 b43e 07c4 38be c69f 84be 3512 81be
00000030: 3d8d bcbe 897b 483e e7f8 4a3e 0add a5be
00000040: 179b bb3e 6fb0 983e 0fa0 aa3e 1ac7 89bd
00000050: 61fe 823e 80c0 123e b12c 84be 8a41 6fbe
00000060: 80f7 8c3e d612 893e acd9 b63d 808a 3c3e
00000070: 6a08 a33e 3561 4cbe f699 623e 1609 68bc
00000080: 9b6d abbe a820 c13d bde7 afbe 7c48 b1bd
00000090: 8894 e53d 174c 42be d0ca b7be bc58 953e
000000a0: 4677 733e 40cb 2a3e 67bc 45bc 7670 aabe
000000b0: c4f4 923e b5b6 84be a464 8cba 13eb 49be
000000c0: 9a3c bd3d 1f5d ac3e 5d0b 893e 3444 6abe
000000d0: 0857 4abe 9228 2e3e b1fb e13d 88d9 09be
000000e0: 8ea9 553d e9c9 053e 85f3 95be ec0d 9c3e
000000f0: 843a 58be 84c3 ec3b 50a9 9fbe b8e0 85be
00000100: ea75 aebe 78c1 94be 6a17 9dbe b97e 143d
00000110: 606b 923d ae17 063e d4cf aebe 0d3d a4bd
00000120: 97b4 a1be 60b5 a3bd 5d22 9f3e 2b3c 433e
00000130: b7e1 a2bd b0e3 8fbe 7a3d 283e 0e22 7cbd

proto_agg_layer.net.weights_protos f4 [2, 40]
1.0 1.0 1.0 1.0 1.0 1.0 1.0 1.0
1.0 1.0 1.0 1.0 1.0 1.0 1.0 1.0
1.0 1.0 1.0 1.0 1.0 1.0 1.0 1.0
1.0 1.0 1.0 1.0 1.0 1.0 1.0 1.0
1.0 1.0 1.0 1.0 1.0 1.0 1.0 1.0
1.0 1.0 1.0 1.0 1.0 1.0 1.0 1.0
1.0 1.0 1.0 1.0 1.0 1.0 1.0 1.0
1.0 1.0 1.0 1.0 1.0 1.0 1.0 1.0
1.0 1.0 1.0 1.0 1.0 1.0 1.0 1.0
1.0 1.0 1.0 1.0 1.0 1.0 1.0 1.0
00000000: 0000 803f 0000 803f 0000 803f 0000 803f
00000010: 0000 803f 0000 803f 0000 803f 0000 803f
00000020: 0000 803f 0000 803f 0000 803f 0000 803f
00000030: 0000 803f 0000 803f 0000 803f 0000 803f
00000040: 0000 803f 0000 803f 0000 803f 0000 803f
00000050: 0000 803f 0000 803f 0000 803f 0000 803f
00000060: 0000 803f 0000 803f 0000 803f 0000 803f
00000070: 0000 803f 0000 803f 0000 803f 0000 803f
00000080: 0000 803f 0000 803f 0000 803f 0000 803f
00000090: 0000 803f 0000 803f 0000 803f 0000 803f
000000a0: 0000 803f 0000 803f 0000 803f 0000 803f
000000b0: 0000 803f 0000 803f 0000 803f 0000 803f
000000c0: 0000 803f 0000 803f 0000 803f 0000 803f
000000d0: 0000 803f 0000 803f 0000 803f 0000 803f
000000e0: 0000 803f 0000 803f 0000 803f 0000 803f
000000f0: 0000 803f 0000 803f 0000 803f 0000 803f
00000100: 0000 803f 0000 803f 0000 803f 0000 803f
00000110: 0000 803f 0000 803f 0000 803f 0000 803f
00000120: 0000 803f 0000 803f 0000 803f 0000 803f
00000130: 0000 803f 0000 803f 0000 803f 0000 803f

dec.model.0.conv.weight f4 [10, 32, 3, 3]
-0.004127505 -0.020658845 0.009493158 0.020150682 -0.100893304 -0.101763465 -0.024725767 -0.10393673
0.00449915 0.020718422 0.001196982 0.04876431 -0.04734074 -0.12187747 -0.021054907 0.0027034685
-0.012041008 0.052136652 0.029583534 0.025705671 0.01965083 0.0011504991 -0.095309 -0.10458426
0.022571014 -0.07257767 -0.07058025 -0.029483281 -0.009821919 0.03215458 0.040043913 -0.0050603994
-0.060223356 0.03940847 0.06492352 -0.03223528 0.06631263 0.017833985 0.030654574 0.093559474
-0.03733871 -0.157132 -0.02272617 -0.07360543 -0.054384355 0.052585155 0.04528885 -0.01905625
-0.046295863 -0.092844844 -0.07163581 -0.059506945 -0.038761552 0.015052109 0.067565896 -0.0154865
-0.066294014 0.07042833 -0.07575618 -0.06834492 0.0052118273 -0.058243074 0.02080302 -0.03976369
-0.10865298 -0.028806191 -0.08018883 -0.051092092 0.07038878 -0.028072184 -0.019017834 -0.008911055
0.03572631 0.022901973 -0.030874273 0.01881826 -0.10526829 -0.05475479 -0.012264948 0.032885373
-0.05713045 0.052481927 -0.019953223 -0.04417136 0.053223725 -0.12954256 -0.05359503 -0.0021359427
-0.10446071 -0.088810205 -0.021451958 -0.08425375 -0.04701467 -0.017711489 -0.097234674 -0.046447042
0.017346561 -0.039859638 0.008454632 0.006146735 0.05532215 -0.014869821 0.104133055 -0.043281104
-0.100552835 0.030402731 -0.13397928 -0.06226584 -0.044559818 -0.11577677 0.021180771 -0.07339323
-0.06435544 -0.020182507 -0.01454103 0.0061261454 -0.008478627 0.016122906 0.0057735704 0.033862237
-0.06788488 -0.030693155 -0.02549137 -0.034580108 -0.0504434 0.0236564 -0.03363645 0.033621874
0.016518854 0.003832608 -0.04370113 -0.029868972 0.08222031 -0.1336907 -0.0996321 0.022963682
0.03675767 0.016882734 -0.04668288 -0.021360837 -0.16486186 -0.0018381962 -0.03664826 -0.08099193
-0.00864387 -0.013563292 -0.0016897334 0.0069034137 -0.0923349 -0.11315058 0.018533394 -0.11196955
-0.0350341 0.03284595 0.029462947 -0.006090115 0.037586883 -0.08513906 -0.039525416 0.060040213
-0.080846876 -0.051966257 0.0073915906 0.021905264 -0.015130423 -0.009797762 -0.06867819 -0.031831022
0.034916855 -0.05670224 -0.019944899 -0.00389689 -0.026134146 0.029014274 0.013236896 -0.06531401
-0.0609386 -0.0051120413 -0.0645748 0.0140981 0.0185993 -0.008919215 0.015704226 0.010998951
-0.09908567 -0.090387344 -0.001635048 -0.0850891 -0.0620396 -0.005283822 0.021613827 0.043669462
-0.0065597408 -0.021412747 -0.058935467 0.028254323 -0.022218665 -0.051903553 0.11856055 -0.009770477
0.030895747 0.035838958 -0.09475661 -0.08438977 0.05221496 -0.008643488 -0.08386733 0.013330516
0.09573744 0.043929525 -0.047617625 -0.03589517 -0.075026006 -0.015584978 -0.03578921 -0.09100636
0.058510695 -0.022070905 0.006254699 0.026213251 -0.04328285 -0.022857241 0.031805474 -0.045734666
-0.02487595 0.021753186 0.0028997422 0.01684243 0.021138933 -0.051351685 -0.043618046 0.048405692
-0.07398621 0.03951636 0.026238862 0.016392646 0.02550016 -0.08246522 -0.07876816 0.04421433
-0.019021792 -0.044894133 -0.025221925 0.04241235 0.031063633 -0.03310644 -0.005372002 -0.025819922
-0.08348177 0.027746083 -0.05911301 -0.082706116 0.041657303 -0.056325987 -0.06621404 0.005445111
00000000: 0540 87bb bd3c a9bc 3189 1b3c 0b13 a53c
00000010: 26a1 cebd 5d69 d0bd b18d cabc c8dc d4bd
00000020: 9b6d 933b aeb9 a93c 0de4 9c3a 16bd 473d
00000030: 5de8 41bd e59a f9bd 577b acbc ad2c 313b
00000040: a647 45bc 3e8d 553d 2b59 f23c b394 d23c
00000050: c7fa a03c 58cc 963a 5d31 c3bd 4630 d6bd
00000060: d9e6 b83c 9aa3 94bd 618c 90bd ec86 f1bc
00000070: 1dec 20bc 85b4 033d 1605 243d b5d1 a5bb
00000080: c4ac 76bd c76a 213d 9ff6 843d 2409 04bd
00000090: ebce 873d 9418 923c 4d1f fb3c 1c9c bf3d
000000a0: 7af0 18bd 36e7 20be 3c2c babc 72be 96bd
000000b0: 21c2 5ebd 8863 573d cd80 393d da1b 9cbc
000000c0: bba0 3dbd 7025 bebd ccb5 92bd 8ebd 73bd
000000d0: 6fc4 1ebd 1f9d 763c fd5f 8a3d 17bb 7dbc
000000e0: 28c5 87bd ba3c 903d 0e26 9bbd 6cf8 8bbd
000000f0: fac7 aa3b 4a90 6ebd 186b aa3c 40df 22bd
00000100: 7485 debd f6fa ebbc 0b3a a4bd f145 51bd
00000110: fe27 903d a3f7 e5bc 4acb 9bbc acff 11bc
00000120: c055 123d eb9c bb3c 0bec fcbc c028 9a3c
00000130: e796 d7bd 8f46 60bd ecf2 48bc d0b2 063d
00000140: 9e01 6abd 4af7 563d f174 a3bc 07ed 34bd
00000150: 1f01 5a3d cea6 04be 7686 5bbd 2cfb 0bbb
00000160: 7fef d5bd 20e2 b5bd 04bc afbc 3b8d acbd
00000170: 7492 40bd af17 91bc f922 c7bd 413f 3ebd
00000180: 601a 8e3c dc43 23bd 4c85 0a3c 8d6a c93b
00000190: 7b99 623d 8da0 73bc b643 d53d 8747 31bd
000001a0: a5ee cdbd 260f f93c dd31 09be 770a 7fbd
000001b0: 5b84 36bd 5f1c edbd 4c83 ad3c 314f 96bd
000001c0: c9cc 83bd c955 a5bc 803d 6ebc d5bd c83b
000001d0: f0e9 0abc 2f14 843c 3830 bd3b 21b3 0a3d
000001e0: 3a07 8bbd 3670 fbbc 47d3 d0bc dfa3 0dbd
000001f0: bd9d 4ebd 11cb c13c 60c6 09bd 17b7 093d
00000200: 8c52 873c 7e2c 7b3b f5ff 32bd c6af f4bc
00000210: 1f63 a83d 37e6 08be ea0b ccbd 551e bc3c
00000220: 368f 163d a94d 8a3c 8c36 3fbd ecfc aebc
00000230: 8cd1 28be a1ef f0ba 7c1c 16bd 19df a5bd
00000240: 059f 0dbc 9238 5ebc 0b7a ddba 0836 e23b
00000250: 141a bdbd 7ebb e7bd 58d3 973c 4b50 e5bd
00000260: eb7f 0fbd 7a89 063d 475c f13c 968f c7bb
00000270: b4f4 193d 635d aebd 67e5 21bd baec 753d
00000280: 0c93 a5bd 92da 54bd 2835 f23b ab72 b33c
00000290: 98e5 77bc cb86 20bc 27a7 8cbd 3f61 02bd
000002a0: fa04 0f3d 9c40 68bd 7c63 a3bc f762 7fbb
000002b0: 4717 d6bc 58af ed3c 91df 583c 5ac3 85bd
000002c0: c19a 79bd e982 a7bb cb3f 84bd b8fb 663c
000002d0: 8f5d 983c e621 12bc 26a6 803c f234 343c
000002e0: 6eed cabd 001d b9bd 1b4f d6ba 3243 aebd
000002f0: 3c1d 7ebd e923 adbb 7b0f b13c c0de 323d
00000300: 18f3 d6bb c969 afbc 5166 71bd 9c75 e73c
00000310: eb03 b6bc d298 54bd e0cf f23d 5a14 20bc
00000320: 1419 fd3c dfcb 123d c10f c2bd 8bd4 acbd
00000330: 5bdf 553d 6b9d 0dbc a2c2 abbd 3d68 5a3c
00000340: fe11 c43d 72ef 333d b30a 43bd d006 13bd
00000350: 3ca7 99bd 2358 7fbc b597 12bd 8b61 babd
00000360: e9a8 6f3d 0bce b4bc 38f4 cc3b 2cbd d63c
00000370: 5c49 31bd 1c3f bbbc 7546 023d 4654 3bbd
00000380: a6c8 cbbc bd33 b23c 9a09 3e3b 23f9 893c
00000390: 8e2b ad3c 2556 52bd d6a8 32bd 0c45 463d
000003a0: 1586 97bd e8db 213d e2f2 d63c df49 863c
000003b0: b6e5 d03c 86e3 a8bd 3351 a1bd 161a 353d
000003c0: 97d3 9bbc e9e2 37bd 369e cebc 93b8 2d3d
000003d0: 2979 fe3c 9e9a 07bd 9e07 b0bb 4d84 d3bc
000003e0: 7df8 aabd c14b e33c 7c20 72bd d361 a9bd
000003f0: d9a0 2a3d 14b6 66bd 3a9b 87bd e76c b23b

dec.model.0.conv.bias f4 [32]
-0.03743857 0.04201486 -0.0045828284 0.029194165 0.045708697 0.04449031 -0.015459305 0.031698126
-0.014589223 0.014876746 -0.058382817 0.009634942 -0.031157421 0.008280151 0.051944666 0.026620664
-0.018324131 -0.050790805 0.0062866905 -0.031169638 -0.045612406 -0.022017814 -0.0435455 0.035787795
-0.042021874 0.043122694 -2.0025689e-05 -0.054310303 0.03767159 -0.011313468 0.045231707 -0.017846081
00000000: 3059 19bd c617 2c3d 8d2b 96bb 9a28 ef3c
00000010: 0b39 3b3d 793b 363d 0649 7dbc e5d5 013d
00000020: a307 6fbc 98bd 733c d222 6fbd e0db 1d3c
00000030: d93d ffbc 78a9 073c eec3 543d 9413 da3c
00000040: 7d1c 96bc 050a 50bd 9500 ce3b 7857 ffbc
00000050: 13d4 3abd b45e b4bc c45c 32bd 3996 123d
00000060: 211f 2cbd 6ca1 303d d7fc a7b7 7b74 5ebd
00000070: 864d 1a3d 205c 39bc e244 393d f231 92bc

dec.model.1.conv.weight f4 [32, 32, 3, 3]
0.08364206 -0.5964718 -0.70196235 0.05988318 -0.9270526 -0.4199498 -0.0742416 -0.5688176
-0.17230694 0.22671305 -0.19069745 0.08272313 0.2608615 0.11729492 -0.038330875 -0.17446536
-0.07950493 0.17772254 -0.04240053 -0.4193591 -0.32178837 -0.23432551 -0.12629347 -0.034958005
-0.43238628 0.107554704 0.25819087 0.0449353 -0.06335867 0.24069443 0.07798747 -0.0059221117
-0.024388669 -0.080529116 0.068875566 0.30993634 0.1710424 0.81042314 -0.011840404 0.095474355
-0.19843416 0.013700351 0.14443535 -0.5178706 -0.17308392 0.11590206 0.6434973 -0.35279214
0.37245372 0.02279163 0.33117142 -0.21625175 0.055418663 0.059908018 -0.21260558 -0.4548753
-0.833223 0.17417474 -0.7664029 -0.8397189 -0.15982747 0.022793911 -0.1710545 0.7786458
0.12416748 -0.5837746 0.3950966 0.037710458 0.29005063 -0.14074801 -0.0120195905 -0.24653605
0.31024304 0.5341457 0.14012988 -0.10869692 -0.043650642 0.019566005 0.20573789 -0.13021839
0.007306886 0.31747288 -0.66230834 -0.44009227 0.029513195 -0.28207767 -0.36888868 -0.44769007
-0.08526493 -0.33580256 0.45054227 0.7157568 -0.8941756 0.1007486 0.6604249 -0.90024346
-0.1424362 -0.33282152 0.07102465 0.48624122 0.6521217 -0.49843004 0.13009922 -0.38388997
-0.24493892 -0.25145033 -0.36353913 -0.3215072 0.41338247 0.3703713 -0.37426117 0.7358654
-0.32384107 -0.4926016 -0.2925581 -0.43450624 -0.17502172 0.5777693 0.46253064 -0.38363847
0.036501396 -0.2587678 -0.33827442 -0.007973456 -0.48289138 -0.3317237 0.5521084 -0.086660564
-0.26706305 -0.08206007 0.05773051 -0.1306168 -0.30515534 -0.59099233 -0.09239237 0.4806288
0.5658018 -0.410201 0.22085646 0.24520692 -0.08779847 -0.40138757 -0.57219315 -0.24493265
-0.09339976 0.7042755 0.26742887 0.41051403 -0.016696492 -0.14783506 0.19706663 -0.36427176
0.23157771 0.3019455 0.66136473 0.058851745 0.42665747 -0.1332636 -0.27547574 -0.26470155
-0.39227262 -0.21641417 -0.08463354 0.038716793 -0.60730004 -0.17968014 -0.37265486 -0.8088432
-0.28218254 -0.69520485 -0.43472412 0.24176654 -0.5801509 -0.96962106 -0.20935255 -0.5058113
-0.71241856 -0.78964186 -0.72474086 -0.517724 -0.2535416 -0.5204459 -0.77470976 0.038119003
-0.671484 -0.36195275 -0.22390339 -0.7477458 -0.612316 -0.30943835 -0.5795366 -0.4374016
-0.38275406 -0.2987818 -0.81016076 -0.10072583 0.07162319 0.29820266 0.22369915 -0.016260374
-0.05725724 0.19229096 0.27588472 0.47572368 -0.17166142 0.45502752 0.7195959 -0.08032164
0.49854407 0.43807456 -0.2412164 0.16153282 0.58951145 0.6309264 0.0041877707 -0.4666689
-0.28115612 -0.48788667 -0.31175882 -0.3121369 -0.16958405 0.25964907 -0.4671276 0.26831165
0.44141656 0.47161487 0.38710663 -0.25720638 0.899035 -0.056041386 -0.7399052 0.14349945
-0.31196773 -0.16717911 0.12786372 0.9476523 0.4425965 -0.018429086 -0.114856385 0.2238657
0.2442065 -0.32784632 -0.09695159 -0.11152135 -0.23874252 -0.44479185 0.19251624 -0.4096897
-0.51495695 -0.09911052 0.1440353 0.20579301 0.26035455 0.31879854 0.44414815 0.10691002
00000000: 874c ab3d 60b2 18bf ceb3 33bf 1148 753d
00000010: 5253 6dbf a903 d7be fb0b 98bd 089e 11bf
00000020: 3b71 30be 7727 683e 3146 43be bf6a a93d
00000030: a38f 853e 5238 f03d d600 1dbd 0ca7 32be
00000040: 7bd3 a2bd e6fc 353e 2eac 2dbd 3cb6 d6be
00000050: 72c1 a4be 07f3 6fbe 1353 01be 2030 0fbd
00000060: bc61 ddbe a445 dc3d 9831 843e 140e 383d
00000070: 31c2 81bd 9a78 763e e5b7 9f3d 460e c2bb
00000080: bfca c7bc 73ec a4bd a20e 8d3d faaf 9e3e
00000090: bd25 2f3e e477 4f3f 41fe 41bc 0f88 c33d
000000a0: 5332 4bbe 7077 603c dce6 133e 2b93 04bf
000000b0: e93c 31be 0f5e ed3d 3dbc 243f 2ca1 b4be
000000c0: 41b2 be3e 83b5 ba3c 4d8f a93e 1971 5dbe
000000d0: aefe 623d 1c62 753d 47b5 59be 6ae5 e8be
000000e0: 1a4e 55bf dd5a 323e fb32 44bf d1f7 56bf
000000f0: d0a9 23be 4cba ba3c e928 2fbe 5555 473f
00000100: 854b fe3d 4172 15bf 1a4a ca3e 4876 1a3d
00000110: 8481 943e 3f20 10be d1ed 44bc f273 7cbe
00000120: 2dd8 9e3e c6bd 083f 357e 0f3e 7e9c debd
00000130: 04cb 32bd e348 a03c f4ac 523e f857 05be
00000140: 9a6e ef3b ce8b a23e 0a8d 29bf c653 e1be
00000150: a8c5 f13c 7c6c 90be fade bcbe a237 e5be
00000160: 619f aebd 50ee abbe 7aad e63e d63b 373f
00000170: b1e8 64bf 4855 ce3d 9b11 293f 5b76 66bf
00000180: ccda 11be 9567 aabe 5f75 913d 9cf4 f83e
00000190: 73f1 263f 3932 ffbe bb38 053e 3a8d c4be
000001a0: 45d1 7abe 19be 80be cd21 babe 979c a4be
000001b0: dea6 d33e 4fa1 bd3e 299f bfbe ad61 3c3f
000001c0: 7fce a5be 4736 fcbe 2dca 95be 9a77 debe
000001d0: e538 33be b0e8 133f d1d0 ec3e 436c c4be
000001e0: 7d82 153d 377d 84be 4e32 adbe 19a3 02bc
000001f0: 8a3d f7be b0d7 a9be fa56 0d3f 187b b1bd
00000200: 7dbc 88be 1c0f a8bd d476 6c3d 69c0 05be
00000210: 523d 9cbe 464b 17bf 3638 bdbd fa14 f63e
00000220: 63d8 103f de05 d2be 3228 623e 8617 7b3e
00000230: afcf b3bd ac82 cdbe 407b 12bf a0cf 7abe
00000240: 6048 bfbd 664b 343f 70ec 883e e52e d23e
00000250: 15c7 88bc 1362 17be d6cb 493e d481 babe
00000260: b522 6d3e 9a98 9a3e 334f 293f 870e 713d
00000270: d972 da3e 4176 08be 280b 8dbe f686 87be
00000280: f5d7 c8be ad9b 5dbe 5954 adbd 8095 1e3d
00000290: 0478 1bbf 12fe 37be 9ecc bebe 5910 4fbf
000002a0: 3b7a 90be f2f8 31bf 2994 debe a691 773e
000002b0: c584 14bf 1639 78bf 8460 56be d97c 01bf
000002c0: 1061 36bf f825 4abf 9e88 39bf 8f89 04bf
000002d0: 34d0 81be f13b 05bf 6153 46bf ac22 1c3d
000002e0: 60e6 2bbf df51 b9be ee46 65be 456c 3fbf
000002f0: bec0 1cbf b46e 9ebe 835c 14bf 1af3 dfbe
00000300: 57f8 c3be eef9 98be b266 4fbf 5849 cebd
00000310: 2eaf 923d 05ae 983e 6411 653e 7a34 85bc
00000320: 9186 6abd ece7 443e c340 8d3e 0e92 f33e
00000330: 03c8 2fbe 5ef9 e83e 7037 383f ac7f a4bd
00000340: 2b41 ff3e 4f4b e03e 6f01 77be dc68 253e
00000350: 39ea 163f 6484 213f 9139 893b 3aef eebe
00000360: b2f3 8fbe 48cc f9be da9e 9fbe 68d0 9fbe
00000370: 71a7 2dbe b9f0 843e 592b efbe 2560 893e
00000380: 5a01 e23e 8177 f13e d732 c63e 8eb0 83be
00000390: 2827 663f a78b 65bd 6d6a 3dbf 85f1 123e
000003a0: 3cba 9fbe 0031 2bbe b5ee 023e 5799 723f
000003b0: 029c e23e 98f8 96bc d339 ebbd 0d3d 653e
000003c0: 4511 7a3e 79db a7be 8e8e c6bd 4e65 e4bd
000003d0: eb78 74be c2bb e3be fa22 453e d9c2 d1be
000003e0: 38d4 03bf 75fa cabd fd7d 133e 67bb 523e
000003f0: 314d 853e 9039 a33e 6367 e33e a4f3 da3d

dec.model.1.conv.bias f4 [32]
-0.8007508 0.24956954 -0.19926147 0.16905148 -0.559047 -0.29956648 -0.9194466 -0.25939792
0.1566841 -0.5914395 -0.2668017 -0.7383753 -0.60988575 -0.67306244 -0.4871069 -0.5911902
-0.3201426 -0.55491936 -0.8152142 -0.73534346 -0.70063347 -0.5288474 0.22560377 0.15767857
0.22216122 -0.5580262 -0.42026496 -0.4435856 0.045920834 0.15796876 -0.26310775 -0.7575907
00000000: 01fe 4cbf 288f 7f3e 330b 4cbe d51b 2d3e
00000010: b41d 0fbf c760 99be da60 6bbf cecf 84be
00000020: cc71 203e 9468 17bf 3c9a 88be 2a06 3dbf
00000030: 7921 1cbf d24d 2cbf 1366 f9be 3e58 17bf
00000040: bbe9 a3be 320f 0ebf e1b1 50bf 783f 3cbf
00000050: b75c 33bf 8b62 07bf ad04 673e 7e76 213e
00000060: 3b7e 633e ceda 0ebf f82c d7be a71d e3be
00000070: 7c17 3c3d 90c2 213e 0fb6 86be 77f1 41bf
